ml/wot_model_map.pth (torch, 533364 bytes, 13 tensors)

map_emb.weight f4 [41, 16]
00000000: 02ec c2bf 1a58 a03f d304 453e 83f2 dc3e
00000010: 1173 b2bf ccba cb3f 1289 6b3f ea87 57bf
00000020: 7d23 41bf a539 743f 8ccd 22bf b83e 083f
00000030: a07e 28be f5d1 ba3f 52cd f1bf d34a ab3e
00000040: 56bc 5cbe 9f7a 773e a1c7 4fbe 0bee 9abe
00000050: d077 2f3f 5dc8 0640 b8a3 3ebf e8d8 26be
00000060: 08a3 953f b75c 903f 5058 a63d 0403 49bf
00000070: de5b 883f f70e aebf a200 08be 6b74 a33f
00000080: 928d be3f 6df9 373f 968f 22be 993e 4b40
00000090: 66fd a2bf 34f0 403f 0140 6d3f bd87 03be
000000a0: 386a 5bc0 5db8 253e 0a83 43bf 84ed 233d
000000b0: 8eb0 b9bf 2109 4140 ac7e c1be b68e 3dbe
000000c0: 6cd3 8bbf 60b1 063f 6522 a6bf c945 dd3d
000000d0: a149 1c3f e32c c0bd 2fcd 9fbe 761f 05bf
000000e0: 5a41 07bf 1fa7 483e 389f 8c3f d000 0a3f
000000f0: 8f23 d93f 5c5f 953f 8bc3 b53e 705f d3bf
00000100: 6669 73be 62c7 16be 1289 343c c888 3cbd
00000110: 8545 85bd 9718 0dbf 6935 6ebf 32c8 333f
00000120: 239d 98bf e434 343f c0d5 32bf 5570 18bf
00000130: 43ca 02bf b41a 8abe 7404 90bf df4b 04be
00000140: a617 cabc a3a6 23bf e30d 883e 2ada f9bc
00000150: 0ca2 0f3f 989f 86bd 4149 8c3f aed9 58bd
00000160: f238 dcbf 7fb6 7d3e a0bc 30bf 574e 8bbc
00000170: 8095 933f fcdd bc3e 9135 a3be 1a4a 50bf
00000180: df8e dbbf 4b09 3cbf 73a3 563e 69ba 8c3f
00000190: f8e2 9e3d 4e4a 6abf 7bbf 8cbe 23a5 643f
000001a0: ba23 3cbf 4a74 413f d841 453f f496 03bf
000001b0: 98ca c9bd 62cf b3be e3c8 273f 45ce 7d3f
000001c0: 5195 b3bf af25 c1bf 1725 44bf 9cfb 98bd
000001d0: b934 77bf 5628 37be fe39 60bc c673 bfbf
000001e0: ca56 273e 1994 82bf e9d6 34bf f9f9 7abf
000001f0: 9e6b 15c0 27d9 4c3e b2be b13f 6981 6dbd
00000200: 7b37 743f 785e 8cbf fa8e de3e 92fc 74bf
00000210: 6cde edbd 6c72 88bf cd83 a3bf 0c77 c83f
00000220: 671b f73e 2b8f 61bd 3ba3 5bbc a5f4 3c3d
00000230: 3151 9c3f ed0a 30bf 5d05 5dbf 3484 babe
00000240: dd79 543f 5575 7dbe de05 c4be 0490 1dbf
00000250: ab89 f73e f48e 56bf 3e06 6fbf ce8d a43e
00000260: c53e 2cbe e135 863f 999f f5be db6d 59bf
00000270: ee4b b8bf 0b67 0abe 2b28 66be c88e ff3e
00000280: d69c 3e3f 35ec a0be 00ff 783f 3095 4fbe
00000290: 2f6c 143f 3a91 ccbf ff1a 2f40 92ab 203e
000002a0: 1804 993f 0d39 91bd 63c6 133e 04a6 0fbf
000002b0: a3b7 a73e daa2 883f a66f 503f 21d9 b13f
000002c0: 9ca5 903f ac0d 84bf 0bc4 7f3f 0ed5 523e
000002d0: 70fa 153f ed26 853f 122d 603f 99e6 07c0
000002e0: df29 373f 690b ba3f 2171 903f 3ccb 95bf
000002f0: de2f afbf 14d7 05be f7d1 8abf 51b2 8ebf
00000300: 7c64 edbf 0725 3b40 a706 023f b518 9bbe
00000310: bc63 a33f d519 803f 4e9b 26bf 4c16 c2be
00000320: b9ca b8bf aaa4 813f f11a bf3d ea2d ae3e
00000330: 0ad4 bb3d 231e 6e3e e00f d83e 4a09 a3be
00000340: 1c6c 18c0 0b99 723f 1da2 26bf 72e4 df3f
00000350: eb65 a23d 438b edbe 794b f0bc 711f d7bf
00000360: 0c18 77be 0a47 c8be 38c7 94bf b0ba 10bf
00000370: 9096 46bf c35d f9bf 2a60 2fbd 644b c0bf
00000380: 7984 1f3f 9d35 28bf 9383 b0bf 05b0 9cbe
00000390: d79a 503e 67e9 113f 274c 47be 8c1c dfbe
000003a0: fec6 0c3e c48d aa3f f9d9 ab3a 8408 b23f
000003b0: a134 8bbf f7f5 b7be 2556 513f 59da 0d3f
000003c0: f456 9fbe 534f 893f 8954 8f3e eca7 1ac0
000003d0: 35a7 25bf 14ac c33f 7e7f 82be a74f b53f
000003e0: e208 d73e 1d3c 75bd 8f97 30be c4d2 6abf
000003f0: 5d8b 3d3e 1ef0 4fbe d7e3 b03e 28b8 8a3e
-1.5228274 1.2526886 0.19240122 0.43153772 -1.3941365 1.5916381 0.9200603 -0.84191763
-0.75444776 0.9540046 -0.6359489 0.532207 -0.16454554 1.4595324 -1.8890784 0.33455524
-0.2155622 0.2416787 -0.20290996 -0.30259737 0.68542194 2.1059792 -0.74468565 -0.1629368
1.1690378 1.1278294 0.08122313 -0.78520226 1.0653036 -1.3598317 -0.13281491 1.2769903
1.4886954 0.7186497 -0.15875086 3.1756957 -1.2733581 0.7536652 0.9267579 -0.12844749
-3.428358 0.1618361 -0.76371825 0.040021434 -1.4507005 3.0161822 -0.37791955 -0.18511471
-1.0923896 0.526144 -1.2979246 0.10804326 0.6104985 -0.093835615 -0.3121123 -0.5200113
-0.52834094 0.19595002 1.098609 0.5390749 1.6963977 1.1669726 0.3550075 -1.65135
-0.23770675 -0.14724496 0.011019008 -0.046028882 -0.065074004 -0.55115646 -0.9305025 0.7022735
-1.1922954 0.70393205 -0.69857407 -0.59546405 -0.51089877 -0.26973498 -1.1251359 -0.12919568
-0.02466948 -0.6392614 0.26573095 -0.030499537 0.5610664 -0.06573409 1.0959855 -0.05294197
-1.7204878 0.24776648 -0.6903782 -0.017005129 1.1529999 0.3688811 -0.31876805 -0.8136307
-1.7152976 -0.7345168 0.20960788 1.0994388 0.077581346 -0.9151963 -0.27489838 0.8931448
-0.73492014 0.7556807 0.77053595 -0.5140221 -0.09853095 -0.35119158 0.65540904 0.9914287
-1.4029943 -1.5089625 -0.76619095 -0.07469866 -0.96564823 -0.1788648 -0.013685701 -1.4957206
0.16341701 -1.0201446 -0.70640427 -0.9803768 -2.3346934 0.20004712 1.388632 -0.057984743
0.95397156 -1.096633 0.43468457 -0.9569789 -0.11614689 -1.0659919 -1.2774597 1.566133
0.48263094 -0.055068176 -0.013405616 0.04613175 1.2212278 -0.6876667 -0.8633631 -0.36428988
0.8299845 -0.2475179 -0.38285726 -0.61547875 0.4834722 -0.8381188 -0.933689 0.32139438
-0.1682082 1.0485193 -0.47973326 -0.8493325 -1.4398172 -0.1351587 -0.2247626 0.4991362
0.7445806 -0.31430212 0.972641 -0.20271754 0.57977575 -1.598182 2.7360227 0.15690449
1.1954374 -0.0709096 0.14431147 -0.56112695 0.3275729 1.0674698 0.8142036 1.3894387
1.130054 -1.0316672 0.9990851 0.20589086 0.5858526 1.0402504 0.8756877 -2.1234496
0.71548265 1.4534732 1.1284524 -1.1702647 -1.3686483 -0.13070327 -1.0845326 -1.1148168
-1.854629 2.924135 0.507914 -0.30292287 1.2764812 1.0007883 -0.65080726 -0.37907636
-1.4436866 1.0128376 0.093313105 0.34019405 0.091713026 0.23253684 0.42199612 -0.31843024
-2.3815985 0.94764775 -0.65091115 1.7491591 0.079295956 -0.4639531 -0.029332863 -1.680647
-0.24130267 -0.39116699 -1.1623297 -0.5653486 -0.7757349 -1.9481739 -0.04281632 -1.5023007
0.6231151 -0.6570681 -1.3790153 -0.30603042 0.20371567 0.5699677 -0.19462644 -0.43576467
0.13747784 1.3324513 0.0013111226 1.3908849 -1.0875436 -0.35929844 0.8177207 0.554113
-0.31121027 1.0727333 0.27994183 -2.4164991 -0.6470826 1.5286889 -0.25487894 1.4164933
0.41998965 -0.05987178 -0.17245315 -0.9172785 0.18510194 -0.20306441 0.34548828 0.27093625

player_encoder.0.weight f4 [128, 13]
00000000: 43dd 6e3e 73d1 23bc bb93 a3bd 48c0 1a3d
00000010: 8ee5 c0b9 cad0 d8bd c4d7 06be 9258 c23d
00000020: 4e3b 1c3e fba9 883e 1be9 5c3d 83ba 85be
00000030: fdd4 d8bc d22c e2bd d832 40be 98c2 ce3c
00000040: ad02 6f3e 775a 3ebe 6dcc 8bbb 5ce9 07be
00000050: aba7 a13d 6415 8a3d 69c3 8c3e 7bad 5b3e
00000060: ecd1 a2bd 9d74 173e 7a96 87be f9bc 58bd
00000070: 0582 51be 9d68 b8bd 737c 443e 9180 8dbc
00000080: 0f22 853e 6a89 65bd bcc7 70be 1335 953d
00000090: 8c64 823e 483d bebd 31ef 53bc 7f41 8b3e
000000a0: abee 26bd ea9c 6fbe 36d7 0e3d 7599 89be
000000b0: c709 f03d cd64 6dbe 2198 69be c832 223e
000000c0: a45e 383e 8fa0 783d e19a 6fbe 6258 80be
000000d0: d6e7 56bb 372f 1f3e fab0 4bbe a776 91bd
000000e0: d335 38be 76c9 783e 89e9 383e 84db 3b3c
000000f0: b33d 01be 4f74 f63c 182e 643e d16c 1bbe
00000100: bf8d 7c39 6af6 c83d d001 883e ac4c 2b3e
00000110: e95f 883e 77bb efbb 10a4 83bd 24b6 883e
00000120: b19d 01bd 90e8 25bd fd6d 73be 8b41 bcbd
00000130: e726 193e b0fa f5bd dfef 40be a3e4 6bbd
00000140: 6228 78be 1756 c4bd 87d5 c53d 459b 2a3e
00000150: 553e fb3d 3cfa 6ebd 23a0 cabb 1039 8dba
00000160: 99a3 39bd f3ed 1a3e 6176 cebc 33a8 053e
00000170: b1c8 40be 3535 4ebe 6dd8 ea3d 7cd7 6e3e
00000180: f083 37be 64d0 6fbe cd0c 0d3c c93d 81bd
00000190: 917f cebc 3f87 7fbe 2cad 3ebe f907 dabd
000001a0: fe23 783e 48f5 203e 8f57 163c 4351 833e
000001b0: a507 7d3d 8ab1 3c3d 4020 473d 0f5c 323d
000001c0: eef3 0bbd b378 763e a61e 94bd 34d3 533e
000001d0: fb4d 013e 61d8 863e 2153 053e 4996 d9bd
000001e0: cb54 a73d f1a0 c53d dcc5 803d 1a03 2d3d
000001f0: b94d 2fbe 847e d53d b476 c1bc 8399 2d3e
00000200: 0d2b 85be 0d8a ae3c 3b6b 4fbe 45b9 5b3e
00000210: 4e03 0dbe 817f c4bd 8782 403d 2e25 63be
00000220: 31ef 80be 3946 6dbd f533 833e b998 133e
00000230: 9b1e 26bd aada 263e eec3 75bb e6fa 85be
00000240: 129f 553d 32f8 fbbd 8e4d 993d f88e 343e
00000250: a771 fa3d 0172 67be 9dc6 2e3d 0e05 4cbe
00000260: b375 703e aa97 823e 3e47 4abe 8a69 383e
00000270: 69b2 063e f7f7 903e d076 1abe e7d2 863d
00000280: 481a 303e 4b2d d2bd f3ea 6a3e 9191 793e
00000290: 0c5f 60be a599 29bd 5515 92bd d714 783e
000002a0: b4fa 6ebe 9917 27be 5260 533e 988f 41be
000002b0: 994a 873e 03e5 32be 84f0 09be 9a08 043d
000002c0: c9b8 97bc 1062 bebd e3da 0dbc 8b1f 20be
000002d0: f684 853e 88e1 7d3d 3ad3 3d3e a81f 77be
000002e0: 87b9 cdbd d9c9 243d 0e38 ae3d 6642 8cbc
000002f0: 78fd ca3d 7080 d4bd 827b 11be 544b 583e
00000300: cad0 21bc 7d3a 1f3e eb65 0d3e e208 ccbd
00000310: 6231 27be c85a 1bbe 78d4 39be 083e 53bc
00000320: 0d99 463e 1de0 693d ae0f 6d3e 3f48 243d
00000330: 774f 08be 4410 0bbd 34eb 413e 874f 063e
00000340: e3d2 ed3d d0ce 263e 087a babd 1933 0b3e
00000350: 44fa b23d cfcd 803e c9c9 d83d a444 8bbd
00000360: cf15 61be 85b3 803e 9b47 20be 5fb3 85be
00000370: 9f78 6abd c498 5f3e 8b23 0bbe 23c5 ecbd
00000380: ef8f 91bd 3247 79be 7b60 0b3d c464 30be
00000390: 8962 583e baa8 aebd 4ce5 653e a590 8abe
000003a0: 0239 563e 583c 253e 3e3f 533d 92ec 3f3e
000003b0: 1a09 563e b578 5cbe d51f 95bd 043a 6fbd
000003c0: 88e6 a5bd 0d89 18be a9fb 7e3e b9c5 0c3e
000003d0: afce 853e 9c87 37be 9037 fdbb 7855 803e
000003e0: 8cb3 cdbd 417b 713e 70c8 0e3e 959c b6bc
000003f0: 7a7d a13c 8916 67be 8d64 223e 6f80 d73c
0.23326592 -0.009998667 -0.07987162 0.03778103 -0.00036792125 -0.10586698 -0.13168246 0.0948955
0.15256998 0.26692185 0.053933244 -0.2611886 -0.026468748 -0.11043705 -0.18769395 0.025239274
0.23340864 -0.18589197 -0.004266313 -0.13272613 0.07893308 0.06742361 0.27492836 0.21452896
-0.07950196 0.14790578 -0.26481992 -0.052914593 -0.20459755 -0.090043284 0.19188099 -0.01727322
0.26002547 -0.05603925 -0.23513693 0.07285514 0.25467336 -0.09289032 -0.012935446 0.27198407
-0.040754955 -0.23399702 0.03487321 -0.2687489 0.11720615 -0.23182984 -0.22811939 0.15839684
0.18004853 0.060699996 -0.23398925 -0.2506743 -0.0032791994 0.15545355 -0.1989173 -0.07102709
-0.17989282 0.24295601 0.18057837 0.011465911 -0.12621193 0.030084757 0.22283208 -0.15178229
0.00024085397 0.09812625 0.26563883 0.16728467 0.26635674 -0.0073160487 -0.06427777 0.26701462
-0.031644527 -0.040504992 -0.23772426 -0.09192189 0.14956246 -0.120107055 -0.18841504 -0.05759109
-0.24234155 -0.09586733 0.09659868 0.16660793 0.12267748 -0.05834411 -0.0061836406 -0.0010774452
-0.045322035 0.15129833 -0.025202932 0.13052444 -0.18826558 -0.20137484 0.11467061 0.23324388
-0.17921424 -0.23419338 0.008609009 -0.06310613 -0.025207313 -0.24953936 -0.18620747 -0.10646052
0.2423248 0.15718567 0.009176149 0.25647935 0.06177487 0.046067752 0.04861474 0.043544825
-0.034168176 0.2406948 -0.07232408 0.20686036 0.12627403 0.2633696 0.13019992 -0.10624368
0.0817047 0.09649838 0.06287739 0.042239286 -0.17119493 0.104245216 -0.023616172 0.16953091
-0.26009408 0.021306062 -0.20255749 0.21457393 -0.13770792 -0.09594632 0.04699948 -0.22182152
-0.2518249 -0.057928298 0.25625578 0.14413728 -0.04055653 0.16294351 -0.0037500816 -0.26167983
0.052153654 -0.12303199 0.074854955 0.17632663 0.12228709 -0.22602083 0.04266988 -0.19923803
0.23482399 0.25506335 -0.19753739 0.1800901 0.13153996 0.28314182 -0.15084386 0.06583195
0.17197526 -0.10262545 0.22941189 0.24371935 -0.21911258 -0.041406292 -0.07132975 0.242267
-0.23337823 -0.16317596 0.20642212 -0.18902433 0.264241 -0.17470174 -0.13470656 0.032234766
-0.01852073 -0.09296048 -0.008658144 -0.15637033 0.26078004 0.06198266 0.18537608 -0.2413317
-0.10045152 0.04023156 0.08506785 -0.017121505 0.099116266 -0.1037606 -0.1420727 0.21122485
-0.009876439 0.15549655 0.1380841 -0.09962632 -0.16327432 -0.15171349 -0.18147457 -0.012893207
0.19394322 0.057098497 0.23150513 0.04010796 -0.13311563 -0.03395106 0.18937379 0.13116275
0.11612489 0.1628983 -0.09105307 0.13593711 0.08739141 0.2515702 0.105853625 -0.068002015
-0.21980976 0.25136963 -0.15652315 -0.26113412 -0.05724394 0.21835619 -0.13587777 -0.11561038
-0.07107531 -0.24343565 0.034027558 -0.17225939 0.21131338 -0.08528276 0.22450751 -0.2706348
0.20920184 0.161363 0.051573984 0.18742588 0.2090191 -0.21530421 -0.07281462 -0.058404937
-0.08100611 -0.1489603 0.24900688 0.137473 0.2613425 -0.17922825 -0.007727571 0.25065207
-0.100440115 0.23582174 0.13943648 -0.022291461 0.019713152 -0.2256719 0.1585867 0.02630636

player_encoder.0.bias f4 [128]
00000000: 81c2 8fbe 7fb5 4abe 7445 4c3d 03b7 5b3e
00000010: b3d8 e0bd 8bf9 dd3b 93b3 9a3d 8864 80be
00000020: 24ff be3d 0622 2cbd 7843 e73d e74b 033e
00000030: 1b4e 353e b89f a2bd 46e0 67be 3a63 e8bd
00000040: c35d 47bd d046 773e 3719 1f3e a6e1 03be
00000050: e93f 60be 8d4b f6bd a6fc 3bbe 65ee 28be
00000060: 4e41 20be f00e 37bd 6a1c d83d a64f 79be
00000070: c4ca 95bd 1927 4f3d d671 e73d 8e03 f7bd
00000080: 7afe 733e d9a4 363e 3b9d e6bd fe74 69be
00000090: 080c 8a3e b7b3 c8bd 9058 2b3e b53d 553d
000000a0: b1ea f83d e93e 383e 7b8f edbd 7371 97bd
000000b0: 96a4 4cbc 998f 813e b9ac 693e a25c 613e
000000c0: 3a47 fa3d cf54 123e 3eb7 793e afa5 e9bd
000000d0: 27ea 6cbe 01b3 843e 2dc9 1e3e ad92 70be
000000e0: bf56 00be 7be4 79be 0204 2abe 39c2 ec3b
000000f0: 4d78 433e eca9 b43c 40ae bcbd 7229 0abe
00000100: b885 80be 6fc4 be3d 1141 503e a23d 093e
00000110: b2df 72be 12f1 6f3e 5a11 59be 4427 cc3b
00000120: 5f55 dd3d 054e aabc a625 583d ed82 51be
00000130: d97e b53c 9875 4f3e f5a2 04be 6cae 053e
00000140: 0172 343e cdca 1bbc 8806 5cbd 8508 623d
00000150: 248e 323e 1f5f 823e 57ff 80bd 6642 53bd
00000160: c912 aebd a573 8b3d e8e8 0bbe 5051 0a3e
00000170: a3de 853e f792 253d 1ecb eb3c 5509 853e
00000180: 270f 3f3d ef48 7abe abec 3a3e a649 78be
00000190: 09d4 01be fa85 803d 4ab4 61be 71da 303e
000001a0: d4bb df3d 6f26 3dbd 2f03 613d 50d6 33be
000001b0: ee62 f3bd 8c0c 82be 6500 9e3d 0011 843e
000001c0: 0154 28be 7df1 813e e470 ddbd 17ed b03d
000001d0: 70a6 96bd 72f4 79be 3cbf c63d b018 343d
000001e0: 545d 97bd 5462 36be c3e6 2c3e 84b9 4cbe
000001f0: f443 893e 0670 cb3c 313d babd 97fa b4bd
-0.28078082 -0.19795798 0.049870923 0.21456532 -0.10978832 0.0067741326 0.07553782 -0.250767
0.09326008 -0.042024635 0.112921655 0.12821923 0.17705576 -0.0794062 -0.22644147 -0.11347051
-0.048673403 0.24148107 0.15536962 -0.12879047 -0.2189938 -0.12026129 -0.18358096 -0.1649719
-0.15649912 -0.04469198 0.105522946 -0.2434679 -0.07314065 0.050574396 0.11301009 -0.12061225
0.23827544 0.17836322 -0.11260458 -0.22798535 0.26962304 -0.09799903 0.16733003 0.0520608
0.12154139 0.17992748 -0.11599632 -0.073946856 -0.012490412 0.2530487 0.22819795 0.22007993
0.12220617 0.14290164 0.24386308 -0.11408555 -0.23136197 0.2591782 0.1550643 -0.23493452
-0.12533091 -0.24403565 -0.16603091 0.0072253016 0.1908886 0.022053681 -0.09212923 -0.13492373
-0.2510202 0.093148105 0.20337321 0.13402417 -0.23718145 0.23431805 -0.21198025 0.0062302668
0.10807299 -0.020789156 0.05277028 -0.204601 0.022155212 0.20259702 -0.12952788 0.13054818
0.17621614 -0.009508801 -0.053717166 0.055183906 0.17437035 0.25463197 -0.06298702 -0.051576994
-0.08499677 0.06809167 -0.13663065 0.13507581 0.2614642 0.04042336 0.028783377 0.25983682
0.04664531 -0.24441884 0.18254344 -0.24246845 -0.12678541 0.06275554 -0.22041431 0.17270829
0.10924497 -0.04617923 0.054934677 -0.17562222 -0.11884104 -0.25400198 0.07714919 0.2579422
-0.16438295 0.25379553 -0.10812548 0.08638971 -0.07355964 -0.24409655 0.09704444 0.043968856
-0.07390848 -0.17810947 0.16884904 -0.19992644 0.26809657 0.02483369 -0.090937026 -0.08836859

player_encoder.1.weight f4 [128]
00000000: 88fe 7f3f 06e6 7f3f 9649 813f d285 803f
00000010: eecb 803f 072b 813f 5a31 803f d8da 803f
00000020: 0ef8 7f3f 6fc9 7f3f 05bf 803f 451f 803f
00000030: 0228 813f e67c 803f af7b 803f d326 803f
00000040: ab31 803f cc01 813f 72f8 7f3f c975 803f
00000050: 768f 7f3f 7ca6 803f 0efc 803f 98da 7e3f
00000060: 2d20 803f a4df 803f 1a13 7f3f bb19 803f
00000070: 9dbe 803f ad62 803f 8004 7f3f 060d 803f
00000080: 47ef 803f dde6 803f 998a 7f3f f29a 7f3f
00000090: 6485 803f 30f0 7f3f f09f 7e3f c243 803f
000000a0: f712 803f e081 803f dc1f 7f3f 103f 803f
000000b0: fac9 803f c531 813f e05e 803f 1be3 7f3f
000000c0: 67e9 803f 6c3d 813f 9581 803f 0006 813f
000000d0: 1853 7f3f 8ebc 803f ecff 7f3f 214b 803f
000000e0: 5f8b 803f 289f 803f f64a 803f 0850 803f
000000f0: 4011 803f cd40 7f3f ad22 813f f828 813f
00000100: 66ac 7e3f 4ebf 803f 1726 803f e563 813f
00000110: d999 803f 6005 7f3f 68b9 803f 3eca 803f
00000120: caa9 803f 1eab 803f 243c 803f 61e4 803f
00000130: e318 803f 91f6 803f cd17 803f 9e2d 813f
00000140: 6522 803f 0510 7f3f f672 803f f705 813f
00000150: 5b7e 7e3f 20f2 803f 8816 803f 8c12 813f
00000160: f2d1 803f a59e 803f 731f 813f 5516 803f
00000170: 39f7 803f a6f6 7f3f 8052 803f c2c7 803f
00000180: e66f 813f d2bb 803f 1c12 813f 1b7b 7f3f
00000190: d3c3 803f 35b1 7f3f cd75 803f 3c81 7e3f
000001a0: b841 813f e52e 813f 2edd 803f ea91 803f
000001b0: 2f87 7f3f a1d8 803f 1f4b 803f 9fdd 803f
000001c0: dbb1 7f3f dd09 7f3f fa78 813f 4785 803f
000001d0: 9eb6 7e3f c08b 803f 486c 803f f5d9 803f
000001e0: 85c3 7f3f 3bed 803f 8903 813f 68d4 7f3f
000001f0: 64f2 803f 7ed2 803f 53e8 7e3f b8ec 803f
0.9999776 0.9996036 1.0100582 1.0040839 1.0062234 1.0091256 1.0015061 1.0066786
0.99987876 0.9991674 1.0058295 1.0009543 1.0090334 1.0038116 1.0037745 1.0011848
1.0015157 1.0078673 0.9998847 1.0035945 0.9982828 1.0050807 1.0076921 0.995523
1.0009819 1.006825 0.9963852 1.0007852 1.005817 1.0030113 0.9961624 1.0003974
1.0073022 1.0070454 0.9982086 0.998458 1.0040708 0.9997587 0.99462795 1.0020678
1.0005788 1.0039635 0.9965799 1.0019245 1.0061638 1.0093313 1.0028954 0.9995591
1.0071229 1.009687 1.0039545 1.0079956 0.99736166 1.0057542 0.9999988 1.0022928
1.0042533 1.0048571 1.0022876 1.0024424 1.0005264 0.99708253 1.0088707 1.0090628
0.9948181 1.0058382 1.0011624 1.010861 1.004695 0.99617577 1.0056581 1.006172
1.0051816 1.0052221 1.0018353 1.0069696 1.0007595 1.0075246 1.0007263 1.0092046
1.0010496 0.9963382 1.0035083 1.0079945 0.99411553 1.0073891 1.0006876 1.0083785
1.006407 1.0048414 1.0087723 1.0006815 1.0075446 0.9998573 1.0025177 1.0060961
1.0112274 1.0057318 1.0083652 0.9979722 1.0059761 0.9987977 1.003595 0.99415946
1.0098181 1.0092436 1.0067499 1.004453 0.9981565 1.006611 1.0022925 1.0067633
0.9988076 0.99624425 1.0115044 1.0040673 0.994974 1.0042648 1.0033045 1.0066515
0.99907714 1.0072397 1.0079204 0.9993348 1.0073972 1.0064237 0.9957325 1.0072241

player_encoder.1.bias f4 [128]
00000000: be29 a7ba 3692 8d3a 869a 1a3c 75d3 af3b
00000010: f725 843b d73a 163c 072f d73a eba9 ca3b
00000020: 5ce2 30bb 7c8c 06bb a9f6 033c b087 a836
00000030: eebc 033c 4742 a03b 9e8e 8f3b 8056 3a39
00000040: 45b4 a63a 480b 013c a774 693a 392b 2f3b
00000050: a306 003b c00e ed3a 7a41 da3b aa5c bdbb
00000060: ad14 5e3b 92d2 973b 1938 b6bb 4834 efba
00000070: dc63 a83b deb7 0e3a 4dfb 6cbb 15d4 c6ba
00000080: a25e eb3b b661 5c3b 471c 84ba 7899 c7ba
00000090: c052 5a3b 6086 b5ba dff3 bcbb 2752 b83b
000000a0: 06de 023b cea6 003a 5f83 64bb 2001 ef3a
000000b0: 5729 d33b a3ea e83b 0999 933b 257f 34ba
000000c0: 2b48 883b 0e7c 263c 1d0b 403b 89b3 f23b
000000d0: 960c 093b 9b71 ac3b 4471 35b9 c5f2 373b
000000e0: 4cd8 5e3b 4010 8e3b de48 823b 31a9 6e3a
000000f0: ebc9 4db9 99af e7ba 5cba 093c 6ced 7c3b
00000100: b980 a0bb ae0f 643b 93c4 83b8 8318 213c
00000110: 95c7 e03a dd14 94bb 7bcf 613b 934f a03b
00000120: 8f6c c63b d4ef d03b 6a42 51ba 0637 da3b
00000130: 8a27 673a 8c40 d13b 0dce e33a 463a 093c
00000140: ccfd b4ba f054 71bb fb44 643b 2fec a03b
00000150: 3427 debb 89cf e23b dfca 4cba 1b11 e23b
00000160: 9ed3 e63b 6624 a13b d6bb 153c 6cc6 ffb9
00000170: 139b f53b 82b9 fcba 0ec6 a03a 232c f13b
00000180: 7002 313c 8c79 663b 89af d03b cc4e 48ba
00000190: 63da 923b ced4 863a 1f05 963b 96a0 9dbb
000001a0: 1e1b 103c 6741 ff3b a657 f23b b10c ad3b
000001b0: 06dd a2ba 0f35 983b cb56 883b d9ab c83b
000001c0: faba 11bb 065a 9aba 47d2 1d3c eafd 973b
000001d0: 3620 9bbb e345 c63b d538 0b3b cd7a ab3b
000001e0: b800 fb39 0abc 803b cfbc 9b3b 977f 1bba
000001f0: 42ac e03b 952f f33b 31eb a3bb 6a33 103c
-0.0012753529 0.001080102 0.009436255 0.005365784 0.004032846 0.009169302 0.0016417213 0.0061848066
-0.002699039 -0.0020530513 0.008054414 5.0225863e-06 0.00804065 0.0048907134 0.004381015 0.00017770566
0.001271852 0.007876225 0.0008905627 0.0026728644 0.0019535206 0.0018086061 0.0066606374 -0.0057788687
0.0033886835 0.0046332562 -0.0055608866 -0.0018249834 0.0051388573 0.00054442685 -0.003616053 -0.0015169407
0.007182912 0.0033627576 -0.0010079228 -0.0015228232 0.0033313483 -0.0013849251 -0.0057663764 0.0056250277
0.0019968762 0.00049076683 -0.0034868342 0.0018234588 0.006444137 0.007108049 0.004504327 -0.0006885401
0.0041589937 0.010161413 0.00293035 0.007406656 0.0020912043 0.0052625663 -0.000173037 0.0028068286
0.0034003435 0.0043354332 0.0039759716 0.0009104191 -0.00019625544 -0.0017676234 0.008406248 0.0038593663
-0.0048981574 0.0034799385 -6.2831816e-05 0.009832504 0.0017149324 -0.0045190887 0.0034455943 0.0048922985
0.0060554217 0.006376246 -0.0007982614 0.0066593913 0.00088178425 0.0063858684 0.0017380134 0.00837571
-0.0013808548 -0.0036824308 0.0034831155 0.004910968 -0.0067795757 0.006921713 -0.00078122126 0.006899012
0.0070442697 0.004917669 0.009139022 -0.00048785226 0.007495293 -0.001928136 0.0012266056 0.007359998
0.010803804 0.0035167662 0.0063685817 -0.0007641136 0.0044816 0.0010286809 0.004578247 -0.004810403
0.008795528 0.007789779 0.0073957024 0.005281054 -0.0012425489 0.004644997 0.004160737 0.0061240015
-0.002223669 -0.0011776097 0.009632654 0.004638423 -0.0047340645 0.0060508116 0.0021243591 0.005233145
0.00047874986 0.003928666 0.0047527323 -0.0005931793 0.006856472 0.0074214437 -0.0050024022 0.008801321

player_encoder.4.weight f4 [128, 128]
00000000: 398c 093d f999 833d 9b14 1dbd 7663 b73c
00000010: a2b2 90bd dae8 9a3c 2f6f 5d3d 171c 79bc
00000020: 0a85 a0bc 1853 15bd b870 e63b d8be d7bb
00000030: dcef 0c3d 66f5 093d dce2 a03d bd4f 8f3c
00000040: 4456 ecbb b9ca af3c ec9f 483d b923 ef3c
00000050: b8f7 63bd f716 e53c bfe5 17bd e595 19bd
00000060: 138d 2abd a072 813d 4610 72bd bf4c 2bbd
00000070: deb2 6ebd 4032 fb3c fe89 a23d 46e4 1a3d
00000080: 098e 123c e50e b53c 5c8c 803c 2f04 06bd
00000090: 4c4c 573d 051c 613d 2c12 953d 9b2c d1bc
000000a0: a185 2c3d 8cb9 70bb 3d8e 543d 1b25 9fbd
000000b0: 55fe b6bd 6f97 edbc 7771 c4bb 13f8 4d3d
000000c0: 8103 9dbd 5966 b5bd 751a ab3d 7702 1cbb
000000d0: 3e3d 8bbb 9b4e d43c 788d 7e3d f426 81bd
000000e0: b7ea 3c3d f2a9 b43d 2cda debc 9bfc adbd
000000f0: 6dd4 803c 16df 283d e856 133d 5611 2d3d
00000100: 2b59 eebb 6b04 52bd 9d47 573d 7824 8c3d
00000110: 4ffd 803d a922 653d 9013 d83c ed94 1b3d
00000120: 2bf0 1a3c 5d7f 4fbc 5588 b9bb e46f ad3d
00000130: 3777 3d3d ecb8 223d 1868 613d 9dba cd3c
00000140: 4e26 273d ebb7 6abd 0419 543d c698 1ebd
00000150: 0128 02bd 02d6 a23c 8268 563d 1b0a 833d
00000160: bd69 36bc 480d b63b d208 1c3b 43a8 813c
00000170: a78f aa3d f591 43bd 5f6d d93c 4cff 2d3d
00000180: 4c2a 85bd d0b6 803b 38b2 95bb 10c0 8b3d
00000190: aaac e3b9 e1c6 1c3d 21a2 2bbd c796 ecbb
000001a0: f068 853d 2bec 373d ebe7 213d 71ee 943d
000001b0: 7d9e 2f3d fa40 7a3d 1a46 233d e83d 90bd
000001c0: 525c 1bbd 87d9 943d 086c 623d 43bb abbd
000001d0: c7b9 6ebd f5e4 a83d 3bde ab3d bcc5 a7bd
000001e0: e9c3 a7bd 1dc3 8a3c dd16 35bd 1a5d 923d
000001f0: 9abe 4d3c b820 a3bd a11b 54bd 7e3f 923d
00000200: 2421 0fbd 80d6 3f3d fe4b 8fbd 22a4 073d
00000210: ac66 ed3c 6278 8c3d cdf7 193d 258a 7bbd
00000220: 3638 213d a509 6c3d a977 a9bd 2670 cd3c
00000230: d02d 73bd 27d8 383d ca2a 993d 2d8b 6abd
00000240: 81a1 acbc 4e7f a5bd 9a66 b23c 33ab 403d
00000250: 7a97 9f3d 46ec 163d 7fb0 a43d b32c 81bd
00000260: f01e 383d 4644 503d 6721 12bd 4a56 2a3d
00000270: cc88 60bd 7eba 373c 56ac ef3c c12c a3bd
00000280: 9cec 083d 36de f03b bdba a0bc 3a7e 80bd
00000290: 5b35 b2bd 0a08 1d3d 12cc a4bd 2c0c 003c
000002a0: 66f6 a43d d6ba 18bd 8d6a 4cbd c439 46bd
000002b0: 184b ac3d 2171 113d 141f aa3c d6d0 acbb
000002c0: fa48 a8bc 7592 0e3d 0437 063d ccbb a33c
000002d0: a8ab 15bc 6c22 b73d a395 74bd 9ad7 6a3d
000002e0: 810c b03d 0d2b ecbb e2c0 583d c140 9c3d
000002f0: 94ec 1f3d f971 453d 0c46 8a3d 8a04 dabb
00000300: 997e 923d 1281 b0bd f8c1 c9bc b513 e93c
00000310: 88b4 78bd f62e fb3b 3222 02bd 6885 b53c
00000320: 1819 a0bd 2041 173d 7f29 25bc 6fab c1bc
00000330: 4bc8 5abc 3e2b 343d 83c5 2bbd 361b 433d
00000340: 06e5 a63d 58c1 97bd 7f25 ffbc 019d a3bd
00000350: f250 7cbd 26ff 343d c579 9e3d 3557 dd3c
00000360: 9aa3 07bb 0145 7a3d 0c86 ab3c 6015 07bd
00000370: 35e7 763d fe06 a838 98bc eabc 877a 1c3d
00000380: 3aa7 c23d c3a8 e9ba 6dbc 39bd 25bf 39bd
00000390: dc22 5c3d 8455 afbd 0861 a83d af4d 403b
000003a0: 091d 56bd 62b9 8a3c 52e9 c5bc 1daf 40bd
000003b0: af32 a03d ae5e f43a 5eee 28bd 935c 1a3d
000003c0: 41fc 753d 25b9 4fbc 5e40 853d 87d0 343c
000003d0: c437 a7bc 091d 643d 40ef 953d 63ba 62bd
000003e0: 38df c5bc 64c8 083c 6c92 7ebd d830 6ebd
000003f0: f143 ef3c da01 65bd f0c7 813c 4c9f 833d
0.033580992 0.06425852 -0.03834973 0.022386294 -0.070653215 0.01890986 0.05406111 -0.015204451
-0.019594688 -0.036456198 0.00703248 -0.0065840296 0.034408435 0.033681296 0.0785577 0.017494077
-0.007212432 0.02145897 0.04898064 0.029191839 -0.055656165 0.027965052 -0.037084337 -0.037496466
-0.041638445 0.06320691 -0.05909755 -0.041821238 -0.05827605 0.03066361 0.07936476 0.037815355
0.008944997 0.022101829 0.015691929 -0.032718834 0.052562997 0.054958362 0.07278857 -0.025533965
0.042119626 -0.0036731688 0.05189346 -0.07770749 -0.08935229 -0.029002873 -0.0059949714 0.05028541
-0.07666684 -0.08857412 0.08354656 -0.002380518 -0.004249244 0.025916388 0.062146634 -0.06306258
0.04612228 0.08821477 -0.027203642 -0.08495446 0.015726293 0.041228376 0.035971552 0.04225286
-0.0072738132 -0.051273745 0.05255853 0.06842893 0.06298315 0.055941258 0.026376516 0.037983824
0.009456675 -0.012664643 -0.005662004 0.08468607 0.04625627 0.039727136 0.055030912 0.025113398
0.040808015 -0.057304304 0.05178167 -0.038719915 -0.031776432 0.019877438 0.05234576 0.06398412
-0.011133608 0.0055557825 0.0023808968 0.015827304 0.08328181 -0.047746617 0.02654141 0.0424798
-0.06502208 0.003928043 -0.0045683645 0.068237424 -0.0004342546 0.038275603 -0.041902665 -0.0072201225
0.06514156 0.04490296 0.039527815 0.072720416 0.042875756 0.061097123 0.039861776 -0.07043058
-0.03792984 0.072680525 0.055278808 -0.08385327 -0.05828264 0.08246795 0.083919965 -0.08192012
-0.08191664 0.01693874 -0.044211257 0.07146664 0.01255765 -0.07965225 -0.05178416 0.071410164
-0.034943715 0.046835423 -0.06996916 0.033115514 0.028979622 0.06858899 0.037589837 -0.06141104
0.039360248 0.057626385 -0.082747765 0.02507789 -0.059369862 0.045128014 0.074788645 -0.057261635
-0.021073105 -0.08080922 0.02177744 0.04703827 0.07792564 0.03684642 0.080414765 -0.06307354
0.04495138 0.05084636 -0.035676386 0.041586198 -0.05481796 0.011213897 0.02925698 -0.079675205
0.033428773 0.0073507084 -0.019620294 -0.06274076 -0.08701583 0.038337745 -0.08046736 0.007815402
0.08054809 -0.037287556 -0.049906302 -0.048394933 0.084127605 0.03550828 0.020766772 -0.0052739186
-0.02054261 0.03480764 0.03276731 0.01998701 -0.009135164 0.08942112 -0.059713017 0.05733452
0.08596135 -0.0072072805 0.052918322 0.07629538 0.039043978 0.048204396 0.06751642 -0.006653373
0.07153053 -0.08618368 -0.024628624 0.02845178 -0.060719043 0.0076655103 -0.031770892 0.02215834
-0.07817286 0.036927342 -0.010080694 -0.023641316 -0.013353418 0.04398655 -0.04193641 0.047633372
0.081491515 -0.07409924 -0.03114581 -0.079889305 -0.061600633 0.04418864 0.077380694 0.027019123
-0.002069688 0.061100964 0.020937942 -0.03297937 0.06027909 8.012167e-05 -0.028654382 0.03820279
0.09504552 -0.0017826784 -0.045345712 -0.045348305 0.053744182 -0.08561233 0.08221632 0.0029343178
-0.052273784 0.0169341 -0.024159107 -0.047042 0.07822167 0.0018643939 -0.04124295 0.037685942
0.06005502 -0.012678419 0.06506418 0.011036045 -0.020412333 0.055691753 0.07321024 -0.055353533
-0.02415429 0.008348558 -0.062151358 -0.05815205 0.029207202 -0.05590997 0.015842408 0.06426868

player_encoder.4.bias f4 [128]
00000000: 8035 95bc e35d 0f3b 4224 803d 8994 653c
00000010: 3e97 393b 0ce9 55bc d851 4dbd a9a0 b33c
00000020: 356b a5bd 8e44 bebc a08d 8fbd a6a2 b53d
00000030: d0e7 243d 81c5 c0bc 8beb 6a3d db86 b73d
00000040: 1155 83bd 00ce 303d f326 fd3b dae1 91bd
00000050: 365a ab3c de25 98bd b138 f03c 3759 a8bd
00000060: d36d 48bc bf77 993d 3676 58bd 8150 4e3c
00000070: 2bbb 19bd 8705 e0bc 84d2 613d ae19 d8bc
00000080: dc14 863d 9138 97bd 7284 6ebc e566 88bd
00000090: 96eb f7bc 3dc1 32bd 2379 1cbc 905e a53b
000000a0: 4dc9 d8bb 7e20 3dbd 08a3 7dbd 1593 febc
000000b0: 4988 3e3d 9302 7dbd 89ad 8cbc e7be a43d
000000c0: 947f 39bd 9e2c 053d eaa4 4c3d 7806 023d
000000d0: 7603 84bd 66c6 77bd f4fd 7abd 902b 84bc
000000e0: 7860 b0bd 601a 4f3d a9cc c6b9 b510 83bb
000000f0: 6858 b4bc 1cdb 713d 73a8 9a3c ba4b 3a3c
00000100: cfdf 0e3d b1dd bc3c d05d 6ebd 53bb 9b3c
00000110: 8c38 29bd b1b5 1c3d 8028 8f3a 1fce 91bd
00000120: 43f3 7f3d 6c68 683d 214f 363d d12b 933d
00000130: ff93 59bd 3777 8fbd fc9d 153d e757 2bbd
00000140: 05d1 c2bc 6873 663b dc79 8cbd 2274 5a3d
00000150: a64f 73bd 7943 9cbc a469 eb3b 8e6f 1b3d
00000160: 19ec 56bd 446c ac3c d47e 8a3d 61bb 0abd
00000170: bea1 65bc 5f9f 563b 80a9 ad3d 2919 66bb
00000180: 776a 9eba 65f4 f83c fbdf 153d 3c99 4abd
00000190: 72d2 a5bd d2e7 b73d 0a60 99bd f49c a93d
000001a0: b347 a1bc 3546 ab3d 764c 70bd 72e6 8abd
000001b0: a3d3 7c3d e0bd 2cbc 81b7 563d 79ef 2bbd
000001c0: b789 8bbd 77d2 7ebd d6ab f23a 87fd a2bc
000001d0: 2f5e 3cbd b223 04bd 6e0f c53c b773 f2ba
000001e0: 1719 68bd cdea 4e3d 6a33 24bd 5bb2 d0bc
000001f0: bb5c ba3b a0f1 99bd ad69 07bd be68 92bd
-0.018213987 0.002187603 0.06256916 0.014012464 0.0028318907 -0.013056051 -0.05012688 0.021927195
-0.08077089 -0.023226049 -0.07009435 0.08868913 0.040260136 -0.023531677 0.057353538 0.089612685
-0.064127095 0.043165207 0.0077255904 -0.07123156 0.02091704 -0.074290976 0.029323908 -0.082201414
-0.012233215 0.07493543 -0.05284711 0.012592436 -0.037532013 -0.027346386 0.055132404 -0.026379433
0.06546947 -0.07383836 -0.014557945 -0.066602506 -0.030263703 -0.043641318 -0.009550366 0.005046673
-0.006615794 -0.046173565 -0.061923057 -0.031075994 0.04651669 -0.061770033 -0.017172592 0.08044224
-0.045287684 0.032513253 0.04996196 0.03174445 -0.064459726 -0.060491942 -0.061277345 -0.016134053
-0.0861215 0.050562263 -0.00037917987 -0.0039997944 -0.022014812 0.05904685 0.018879151 0.011370594
0.03488141 0.02305493 -0.058194935 0.019010222 -0.041313693 0.038259212 0.0010922104 -0.071193926
0.06248785 0.05674021 0.044509057 0.07186092 -0.053119656 -0.0700516 0.03652762 -0.041831877
-0.023781309 0.0035164002 -0.0685918 0.05333341 -0.05940213 -0.019075142 0.007184224 0.037948184
-0.052471254 0.021047719 0.06762472 -0.033870105 -0.014015613 0.0032748801 0.08479595 -0.0035110211
-0.0012086172 0.030389974 0.036590558 -0.049462542 -0.0809678 0.08979763 -0.07489021 0.082818896
-0.01968751 0.08363 -0.05866667 -0.06782235 0.06172527 -0.010543317 0.052421097 -0.041976426
-0.068133764 -0.062212434 0.0018514346 -0.019896282 -0.045988258 -0.032260604 0.024055209 -0.001849762
-0.056664553 0.050516892 -0.040088095 -0.025475672 0.005687324 -0.075167894 -0.033059765 -0.07148884

attn.0.weight f4 [64, 128]
00000000: 0ff6 963d b787 e13c ff9c 7bbc 0c6c a13d
00000010: a04a 223d 4f3c 8c3c 2bd7 bbbb f77f 8e3c
00000020: 48d3 6c3d 330a 99bc 5382 29bc 2744 e5bc
00000030: b71d d4bb f032 6d3d 51e7 8a3c bea5 983d
00000040: 9c93 423c 7588 b7bd 512e c43a 59c5 df3c
00000050: 3b21 a6bc 7905 ea3a f7fd 85bc 72f5 0d3b
00000060: c656 a1bc dac1 073d 8b25 b03d f1c0 5d3d
00000070: 0df4 35bc 569a 7cbc 7783 843d 196a dd3c
00000080: d8f3 b53d 166a 8abb 708c a33c 6aa7 96bc
00000090: 9737 b43d 328d 26bd 6f04 6b3d c85c 96bc
000000a0: f88f e73c 86d9 a33d 9de1 62bd 0430 483d
000000b0: 0600 c13b e82f 3abd 8b51 a8bd 127b 9d3c
000000c0: 04cf 01bc 7635 b1bd e4b1 63bd 9c71 07bd
000000d0: 178c c1bd 38a2 39bd e73d 20bb 6dcb 993d
000000e0: 296a 9dbd 92bc 7f3d e3b9 8abd 6675 40bd
000000f0: 2271 7ebb 00e7 933d bb9c 30bd 19d7 e339
00000100: a70a 46bc faa4 fa3c 9ee0 453b 0326 cb3c
00000110: f1b6 30bc db7d 953c 2e2b 94bd 7b6d 9d3d
00000120: 0a58 7b3c 181d 8a3c 5566 82bd 1b8f 43bd
00000130: b191 9b3c a4c2 a93d c8ae cbbc 7576 85bd
00000140: 4e6a 613b 884a 2b3d ba20 fc3b 1332 df3c
00000150: f548 04bd 9c67 68bc ab85 75bd 4a60 07bd
00000160: 1fbf 52bd ce0b d6bb 791a 2a3b dbe6 f8bc
00000170: bb97 593c 7ee9 3a3c 21db 0fbc 1950 26bd
00000180: d069 7abd 28c3 523d f874 67bc f6a1 813d
00000190: dd42 1dbd cfa0 b5bd d289 0b3d 065d 9abc
000001a0: 8b5a 153d 5b6c 9b3d 910b 4cbd 2780 c23c
000001b0: 480d e53c e929 9fbd 4700 663c 7c16 e9bc
000001c0: b158 acbd b599 523d 0c1d a6bb 7bbd aa3d
000001d0: b9c5 6dbd 28a8 2ebc 6c57 80bd a37d 183d
000001e0: 9046 463d 6d38 9fbd 953d 13bd b6fe 853d
000001f0: 7fab eabc c8d1 d33b 81a1 173d bb66 98bd
00000200: fed3 813c d0fd 973c e4e4 d33c 1b44 973d
00000210: 20a1 c1bb ee16 7ebd 0407 9c3d 6628 e93b
00000220: bf81 8dbb 4986 b43d 63ec 323d 4947 99bd
00000230: 9505 6cbc 5a7e 1abc 3570 71bb 2bd0 58bb
00000240: 6ef1 613d 252f 033d 01f4 f73c 2d94 dfbc
00000250: 91c7 a4bd 8a54 a2bd 1171 e63c dec9 0f3d
00000260: bb43 403d f625 12bd 49ab 1cbd ffaf d4bc
00000270: ca71 8f3d d459 6c3d e32d b13a 78f3 9fbd
00000280: b50d 9a3d b345 3bbd 15a1 003d a46a 473d
00000290: 0f1a b3bd 2926 55bd e60f c3ba 5edb 3f3c
000002a0: bcc8 4fbd 28e7 b13d 63f3 1c3d 7994 0f3d
000002b0: 09c2 e3bc 7b25 53bd ed16 dfbb 4bb1 4fbd
000002c0: 5e2b 4c3c 7360 753d 24a8 e4bc 0013 513d
000002d0: a6d4 3a3d 5480 a6bd e1f4 9abd d626 9f3d
000002e0: be5f 983c f8b8 87bd 9f6a 78bd f665 9d3c
000002f0: 7049 38bd 03c0 9f3d 4df2 95bd 8b51 b3bd
00000300: 45d4 f53c 6bad b1bd 5352 2cbd 7278 3dbd
00000310: 89f6 a63d 8e85 25bd 69f1 953c 5289 533d
00000320: 0521 80bb d9a5 343d c419 b2bd a198 cc3c
00000330: 22a4 a8bd d65d b9bc 342d 463d 9bdc 623d
00000340: 424d a0bd dca1 83bc 0089 9abd 5113 b63d
00000350: 830a 343d 2966 e9bc ac5b a3bd 8763 873d
00000360: fc15 8bbd 8135 db3c d9de a73d 210d 773d
00000370: a1f3 7a3d 2ae4 b13d 18ef a1bd 8e94 853d
00000380: be71 8dbc 0b4f cbbc 8176 8fbb b333 973c
00000390: 8b52 9b3d 5546 c33c cd95 84bd 36c8 55bd
000003a0: 1813 93bd 64c4 a63d 0fef a53d 1de4 5e3b
000003b0: bff5 78bd b7aa 7c3a 6e23 8f3c 161b 41bd
000003c0: 2dc7 a73c 7097 d3bc 8f5a 78bc 9fb3 673d
000003d0: 41e9 83bd 8636 d2bc 190c 923d 621d f2bc
000003e0: fa7d 09bd ad34 7a3d 8bf5 91bd dd4b 85bd
000003f0: 99f9 c03b 592a 36bd 9455 ec3c c0be b4bd
0.07371151 0.027530534 -0.015357255 0.078819364 0.03962195 0.017118601 -0.005732437 0.017395003
0.05781868 -0.018681621 -0.010346013 -0.0279866 -0.006473269 0.057909906 0.016956003 0.07453488
0.011876013 -0.08961574 0.0014967417 0.027315782 -0.020279517 0.0017854414 -0.016356451 0.002166119
-0.019694697 0.033143856 0.08600911 0.05413908 -0.0111055495 -0.015417656 0.064703874 0.02702813
0.088844 -0.004224072 0.019964427 -0.018390376 0.087996654 -0.040661998 0.057377275 -0.018354788
0.028266892 0.08000474 -0.055390943 0.048873916 0.0058898954 -0.045455843 -0.08218678 0.019223724
-0.0079228915 -0.08652775 -0.05558957 -0.03306733 -0.09450548 -0.04532072 -0.002445096 0.075095035
-0.07686264 0.062435694 -0.06773736 -0.04698696 -0.0038824757 0.07221794 -0.04311822 0.00043457074
-0.012087501 0.030596245 0.0030193697 0.024798399 -0.010785804 0.01824849 -0.07234798 0.07686897
0.015340814 0.016859576 -0.063671745 -0.047743898 0.01899037 0.08289078 -0.024863616 -0.065167345
0.0034395638 0.041819125 0.007694331 0.027245557 -0.03229614 -0.014184859 -0.05994193 -0.033050813
-0.0514518 -0.006532169 0.002595572 -0.030383518 0.013280804 0.011408208 -0.008780272 -0.04060373
-0.061136067 0.051455647 -0.014127009 0.0632972 -0.038393844 -0.088685624 0.034066983 -0.018843185
0.0364633 0.075890265 -0.049815718 0.023742748 0.027960435 -0.077716656 0.014038152 -0.028453104
-0.08415354 0.051416118 -0.0050693806 0.08336922 -0.05804989 -0.010660209 -0.062666744 0.03722919
0.048407137 -0.07774434 -0.0359474 0.06542723 -0.028646229 0.006464217 0.037019257 -0.07441469
0.015848156 0.018553644 0.02586598 0.07386037 -0.0059091 -0.062033586 0.076185256 0.0071154116
-0.0043184455 0.08814675 0.043682467 -0.074843 -0.014405628 -0.009429539 -0.0036840562 -0.0033083062
0.055161886 0.032027382 0.030267717 -0.027292335 -0.08045877 -0.07926281 0.028130086 0.035104625
0.046939593 -0.035680734 -0.038249288 -0.025962828 0.070041254 0.057702854 0.0013517704 -0.0781011
0.07522146 -0.045720767 0.03140362 0.048685685 -0.08745205 -0.052038345 -0.0014882057 0.011710016
-0.050728545 0.08686668 0.03831805 0.035053704 -0.027802484 -0.051549416 -0.006808153 -0.05070619
0.012461511 0.059906434 -0.027912207 0.05104351 0.045612954 -0.081299454 -0.07566238 0.07771079
0.018600341 -0.06627077 -0.060648557 0.019213658 -0.04499191 0.07800295 -0.07321606 -0.087557875
0.030008445 -0.08675655 -0.042070698 -0.046257444 0.081524916 -0.04041057 0.01830359 0.05164463
-0.0039101862 0.044103477 -0.08696321 0.024975123 -0.08234431 -0.022627752 0.048382953 0.055386167
-0.07827236 -0.016068392 -0.07545662 0.08890403 0.043955337 -0.028491097 -0.079764694 0.0661078
-0.067913026 0.026758911 0.08196802 0.060315255 0.0612675 0.08686097 -0.07906932 0.06522475
-0.01726615 -0.024817964 -0.0043781404 0.01845727 0.07584103 0.023837248 -0.06473885 -0.05219289
-0.07181376 0.08142927 0.081022374 0.0034010478 -0.060781237 0.00096384756 0.017472949 -0.04714497
0.020480717 -0.025829047 -0.01515831 0.056567784 -0.06440974 -0.025660764 0.07131214 -0.029555026
-0.033567406 0.06108539 -0.07126912 -0.065086104 0.0058891294 -0.04447398 0.0288494 -0.08825445

attn.0.bias f4 [64]
00000000: 8478 8b3b 5c9e f23c ce98 0fbc 60f2 0cbd
00000010: a393 373d 2d0f 1cbd 714e 06bd 00ec b3bd
00000020: ee19 39bd 4052 a23d 8d66 87bc d0a4 9cbd
00000030: 7f1a 97bd 3df0 96bd eedc 033d 4008 94bd
00000040: 41a1 443d 9f7c 9aba 3044 45bd 1c31 773c
00000050: c36a f03c 9ca0 923c 8d2b 6bbc 746e a03a
00000060: 0cd2 363d b45d 42bc 335c 913c c8f5 883d
00000070: 7c71 773d c917 4fbd 1301 00bb 1fb3 913d
00000080: 1c88 86bd 9e2b a9bc 7a74 5b3d 4822 aabc
00000090: 64d4 bfbc 1999 a0bd 6abd 8b3b 2f15 04bd
000000a0: 7d2d ef3c 0a30 d53c 7b47 9ebc a7ac 33bd
000000b0: ee75 8cbd b4f0 de3c ad31 bcbc e402 7b3d
000000c0: 7774 0ebd acc6 4d3d 14ef 8f3d 1414 dcbc
000000d0: d442 3c3d 381f 14bd 7d72 92bd 3170 fcbc
000000e0: 9c66 c6bc dbf0 89bc 3f42 993d 143a 7cbd
000000f0: 8830 0a3d 98f2 fa3c fb9c 95bd 3418 853c
0.00425631 0.029616527 -0.008764459 -0.034410834 0.04481853 -0.03810041 -0.03278965 -0.08785248
-0.045190744 0.07925844 -0.016528392 -0.07648623 -0.073781006 -0.073700406 0.032193117 -0.07228136
0.048005346 -0.0011786408 -0.04816073 0.015087392 0.029347783 0.01789885 -0.014353645 0.0012239949
0.04463391 -0.011863161 0.01774416 0.06687504 0.06041096 -0.050559793 -0.001953189 0.07114243
-0.065689296 -0.020650681 0.053577878 -0.0207683 -0.023416705 -0.07841701 0.0042645233 -0.032246765
0.029196495 0.026023883 -0.019321194 -0.043865826 -0.06858431 0.027214386 -0.022972906 0.061282054
-0.03477904 0.050238296 0.070280224 -0.026865043 0.04596217 -0.036162585 -0.07150743 -0.030815216
-0.02421885 -0.016838482 0.074833386 -0.061578825 0.03373769 0.030633256 -0.07305332 0.016246893

attn.2.weight f4 [1, 64]
00000000: 8006 0bbd e524 833c 8925 2b3c ef1f d4bc
00000010: ca1f aabd c10d af3d 535b 5f3d bd11 ecbd
00000020: 690c 89bd 4a2c 71bc bb78 a5bd 1862 803d
00000030: 5121 c13d da66 d6bc ecf5 a03d 10aa 57bd
00000040: 8991 183c 9e70 babd 8dde e6bd f49f c03d
00000050: fd48 6fbd be05 a63c 6b1f 6c3d eebf 263d
00000060: 8739 203a 1a0b d23d 38b7 fbbd f17a 6ebd
00000070: ac60 f93d d262 dabc 9148 c13d b412 7f3d
00000080: dbfa 2f3d fb83 043e f4a5 3a3d 307f b23c
00000090: 8b63 fdbd 2e17 d6bd d947 aa3d ce13 e43d
000000a0: ce7c 8cbd afa0 aabd cc5b 753d 8050 92bd
000000b0: 92ed abbd 033a d4bd 7338 0e3c 786d 79bc
000000c0: 7a84 303d 6aa5 3e3d a4bf 943c c32e 6dbd
000000d0: dcd0 88bc 6042 f73d b61d 57bd 4818 a93d
000000e0: 4186 5ebc 30cc 9dbd c8ec 8bbd b149 1d3d
000000f0: b1d8 86bc 361e d43c b5d9 b6bd 2831 fe3d
-0.033941746 0.016008804 0.010445961 -0.025894133 -0.083068445 0.08547545 0.054530453 -0.11526821
-0.0669182 -0.014720032 -0.08079668 0.0626871 0.09430183 -0.02617209 0.07859406 -0.05265242
0.009312042 -0.09103511 -0.11272917 0.09405509 -0.058419216 0.02026641 0.05764715 0.040710382
0.0006112088 0.10256024 -0.122908056 -0.058222715 0.12176642 -0.02665845 0.09437669 0.062273696
0.042963844 0.12940972 0.04556842 0.021789163 -0.12372502 -0.1045364 0.08314485 0.1113659
-0.06859742 -0.08331429 0.059901997 -0.071442604 -0.08394922 -0.10362627 0.008680451 -0.015223853
0.04309509 0.04654447 0.018157788 -0.057905924 -0.016701154 0.12073207 -0.05251857 0.082565844
-0.013581813 -0.07704961 -0.06832272 0.038400356 -0.016460748 0.025893312 -0.08928243 0.124117196

head.0.weight f4 [256, 406]
00000000: 8c0d 14bd 4719 0bbd e5d2 23bd 9638 023d
00000010: 9842 0ebd 64a6 183c 8e8c e33c 886d 0d3c
00000020: 3b04 0cbd ddb7 aeba cd28 423d b592 443d
00000030: ae1f 483d f9a5 cdbc e587 8ebc d957 233d
00000040: 41a9 9abb 45e3 b33c a363 80bc d6f8 da3c
00000050: cf8c 47bc 9ce7 bf3c 22b0 a9bc 67e5 1a3c
00000060: ed96 3bbc f73a 023c 2260 bc3c 38a6 cfbb
00000070: ea00 f9bc 1c79 2bbb 8f96 e3bc 53b2 193d
00000080: d603 fcbc 7e88 463d f172 283d 7977 18bd
00000090: e2e0 3b3d 77ff 9e3c 352f c43c 35bc a13c
000000a0: ef98 803c ac03 2ebd 839d dcbc bd53 0a3d
000000b0: d101 93ba 0038 3e3d 782d 84bb 4940 193d
000000c0: 83c8 343d bf9c d7ba a801 8e3b f6db 013b
000000d0: eafe f5bc 3b9c f2bc d2d8 b73c ff49 4a3d
000000e0: f745 fc3c 6215 bd3c a1d4 1dbd d053 1dbc
000000f0: ebfe c83b ce42 453d 5ab4 84bc 07ab 913c
00000100: ccf8 02bd 6933 083d 5e01 19bd 7ac5 113d
00000110: da15 033d 8f5f 48bd 0f18 373d de9b dcbb
00000120: 87d2 023d 13a2 fb3c fbc0 12bd bc32 a93b
00000130: e20e 163d b2d5 c53c bdfc 743b 8040 bc3c
00000140: 3ed3 573b 1aef 29bd 1f69 333d 6b45 643c
00000150: 4c73 083d 9afd 213c f729 3dbd 835c 44bc
00000160: 6005 11bd 5df8 20bc 129d c53b f085 48bb
00000170: 3b76 f4bc eef6 9c3b 5063 27bc eedd 02bc
00000180: f851 0d3d e688 293b c384 35bd 060b bdba
00000190: b8f1 39bd 6666 27bd de1d db3b f113 15bd
000001a0: 206c e03c ed2c 193d 974a d0bc cce1 243d
000001b0: 648a 083b 59d0 573d 0ae0 b63c 28c9 ff3b
000001c0: 6840 71bc a23c 223d 76a7 3d3c badf 563c
000001d0: 37a2 65bc 32b8 753c 0dd9 8f3c 6567 033d
000001e0: faaf 4cbc a19e 023d 2d00 d23c 32c8 863c
000001f0: 063f 29bd 3d89 fcbb cd23 b7bc 4a01 de3c
00000200: 0f4c 3e3d ca0a d0bb 25ab c83c 55f4 2e3d
00000210: 4a5e f7bc 187c 40bd 7cc7 473d 2099 883a
00000220: 97b5 9e3b 36fd 46bc d43b f2bc da8f 32bd
00000230: 7bb2 3a3d a0dd ed3b 8306 253d bab3 0bbd
00000240: 9440 1e3d e1c3 8abc b709 153c 2d03 d3bc
00000250: e596 7c3c db1a 71bc 14b7 f4ba 3abd 0fbd
00000260: e082 b8bb cb66 29bd c87d 493c 5d56 33bd
00000270: 242e 05bd fc31 d6bb 6514 1bbd 7693 6d3b
00000280: 972c 0e3d 73b8 56bc 59e9 0e3d f251 323d
00000290: 16d3 91bc ce52 093d 0689 d53c ab85 97bc
000002a0: 48a3 eabb 9671 08bc be5c 04bd a3ae 503c
000002b0: 59c9 f53c 9bf4 dcbb 1285 fabc 7b10 a53c
000002c0: 115a 203d 605b 493d 7cfc 003c caf2 12bd
000002d0: e0dc 16bd 69c1 08bb 121a 0fbd 92c3 27bd
000002e0: 0f38 42bc 6949 093d 1ed2 0b3c 3ff8 10bd
000002f0: f55c 98bc 51fa 6b3b 3163 e83c 80e9 6d3a
00000300: 79c5 0c3d 7fc8 3e3d 6545 4ebc 8c63 acbb
00000310: 9d05 f2bc 5e64 273d 5879 7c3c 1b1d 2e3d
00000320: e90d 4cbd 7664 823c 88e4 13bd 4cb7 d0bc
00000330: b76d 3d3d f8b5 1dbd 8551 3bbd 4f88 963c
00000340: e0dc ec3c f9c2 e1bc 2489 b93c 8f09 273d
00000350: 787c 0fbd 9ca5 cebc f8c4 353d 9ac8 42bd
00000360: 1483 2cbc 3ea3 c8bc aefa 143d 67e9 b73b
00000370: 8aa8 3ebd 43cd 313c abb3 c13c e7b7 173d
00000380: c0fc 653c 7a64 64bc 126f ff3c f433 663b
00000390: 1efe 82bc acfd ffbc b409 42bd 0cdb 56bc
000003a0: 6e51 a63c cd8a 4ebd 992c dd3c 3702 cdbc
000003b0: a674 3d3d 22a1 203b 552c 053d eed5 ebbb
000003c0: f488 bc3c 57d6 2b3d 1020 463c 539d fdbc
000003d0: 954f 153d 5a02 1bbd b466 1d3d 1370 343c
000003e0: 9668 193c ae39 5a3c 7cae 663c 1be0 443d
000003f0: 3ffe 0ebd 6648 3d3c 5b02 34bc 1925 fdb9
-0.03614573 -0.033959653 -0.039996047 0.031792246 -0.034731477 0.009317014 0.027776983 0.008632071
-0.034183722 -0.0013329942 0.047402192 0.047991473 0.048858337 -0.025103556 -0.017398784 0.0398787
-0.0047198837 0.021958956 -0.01567251 0.026729982 -0.0121795675 0.02342587 -0.02071387 0.009454108
-0.011449558 0.007948629 0.022995058 -0.0063369535 -0.030395944 -0.0026164716 -0.027781753 0.03752358
-0.030763548 0.048470013 0.04112524 -0.037223313 0.04586876 0.019408925 0.023948291 0.019743064
0.015697924 -0.04248397 -0.026930576 0.033771265 -0.0011215751 0.046440125 -0.0040337406 0.037414823
0.044136535 -0.0016449912 0.0043336935 0.0019814945 -0.030028779 -0.029615512 0.022442255 0.049386974
0.03079508 0.023081485 -0.038532857 -0.009602502 0.006133904 0.048159413 -0.01619928 0.017781748
-0.031975552 0.033252154 -0.03735482 0.03558872 0.03200326 -0.048919257 0.04470068 -0.006732448
0.031939056 0.030716931 -0.03582857 0.0051635187 0.036635287 0.02414975 0.003738209 0.022979975
0.0032932307 -0.04148779 0.043801423 0.013932566 0.03331308 0.0098871235 -0.0461826 -0.011984947
-0.035405517 -0.009824839 0.006030687 -0.003059741 -0.029841533 0.0047901785 -0.010216549 -0.0079874825
0.034502 0.0025868951 -0.044316065 -0.0014422841 -0.045396537 -0.04086914 0.00668691 -0.03639597
0.027395308 0.03739636 -0.025426192 0.0402544 0.002083444 0.05268893 0.022323627 0.007805962
-0.014724828 0.039608605 0.01157557 0.013114864 -0.014015726 0.014997529 0.017559553 0.032081027
-0.012493128 0.03188956 0.02563485 0.016452882 -0.04131987 -0.0077067898 -0.022355938 0.027100224
0.046459254 -0.0063489424 0.02449567 0.042713482 -0.030196328 -0.046993345 0.048774227 0.0010421611
0.0048434245 -0.012145331 -0.029569544 -0.04359422 0.04558037 0.007259086 0.040289413 -0.034106947
0.038635805 -0.016939105 0.0090965545 -0.02575835 0.015416835 -0.0147158755 -0.0018670284 -0.03509257
-0.005630836 -0.041357797 0.012298055 -0.043783534 -0.032514706 -0.0065367203 -0.037861247 0.0036251224
0.034710493 -0.0131055 0.034890506 0.04353518 -0.017800849 0.033526234 0.026066314 -0.018496355
-0.007160578 -0.008327862 -0.03231501 0.012736949 0.030003237 -0.0067430264 -0.030581031 0.02014946
0.039148394 0.049159408 0.007872697 -0.035876073 -0.036831737 -0.0020867235 -0.034936972 -0.040957995
-0.011854186 0.033517275 0.008533983 -0.035392996 -0.018599013 0.0036007355 0.02836761 0.0009075627
0.034368012 0.046577927 -0.012589787 -0.0052608903 -0.029543692 0.040867202 0.01540979 0.042508226
-0.049817953 0.015917044 -0.036106616 -0.025478028 0.04624721 -0.038503617 -0.04573204 0.018375544
0.028913915 -0.02755879 0.022648402 0.0407806 -0.035030812 -0.025225453 0.044377297 -0.04755459
-0.010529298 -0.024491902 0.03637188 0.0056125405 -0.04654745 0.010852161 0.023645243 0.037040617
0.014037311 -0.013939971 0.031180892 0.0035126181 -0.015990313 -0.03124889 -0.047372535 -0.013113748
0.0203025 -0.05042534 0.026998805 -0.02502547 0.046253823 0.0024510105 0.03251298 -0.0071971333
0.023014523 0.041952457 0.012092605 -0.030958807 0.03645285 -0.03784404 0.038428023 0.011013049
0.009363314 0.013319416 0.014079686 0.048065286 -0.034910437 0.011552906 -0.01098689 -0.0004828356
