ml/wot_model_map.pth (torch, 545917 bytes, 16 tensors)

map_emb.weight f4 [4, 16]
000000 45 bb 25 3f 27 b7 f2 3e 71 e0 c4 3d c7 23 03 bf
       0.64738876 0.4740536 0.09613121 -0.51226467
000010 e2 97 a1 3d 2a 85 eb 3f 69 75 8e 3f 54 e3 8a bf
       0.078902975 1.8400013 1.1129581 -1.0850625
000020 1f 01 1f bf 3a 7e 81 be fa 0c fb 3e a1 27 3e bf
       -0.62111086 -0.25291616 0.49033338 -0.7427922
000030 62 80 31 3f e5 26 74 bf 14 98 c9 bf d0 51 10 bf
       0.6933652 -0.9537185 -1.5749536 -0.56374836
000040 16 32 2f be 63 85 32 40 e9 cb 4e 3f 3b 89 11 3f
       -0.1710895 2.7893913 0.8077989 0.5685002
000050 01 b2 82 3f 93 61 6e 3d 79 24 46 bf b7 d7 94 bf
       1.0210572 0.058198523 -0.773994 -1.1628331
000060 33 c9 c9 bf 04 5f d2 bf 9f 65 dd 3f 0c ba 1b 3f
       -1.5764526 -1.6435246 1.7296637 0.6083076
000070 99 06 11 c0 ab d6 ad 3f b1 8c 25 be c0 f4 a2 3f
       -2.2660277 1.3581136 -0.16166951 1.2730942
000080 af 52 48 3f 9a 31 cd be 5a e5 0c bf 12 c9 86 3f
       0.78251165 -0.40076905 -0.5503746 1.0530112
000090 2d 73 c0 3d b0 63 08 be f2 2c 07 c0 11 3f 61 3f
       0.09396968 -0.13319278 -2.1121182 0.87986857
0000a0 5b 3d b4 bf 4d f7 3f bf 55 c1 53 3e 4a 20 1b be
       -1.4081224 -0.74986726 0.20679219 -0.15149036
0000b0 ca 47 45 3f 19 0e 41 bf d5 80 93 bc 23 7f 17 3e
       0.77062666 -0.75412136 -0.018005768 0.14794593
0000c0 2d e1 16 bf f1 f7 bd bf 75 9a 93 bf 7f 84 9d bf
       -0.5893734 -1.4841291 -1.1531512 -1.230606
0000d0 a7 6b ba bd 11 ca 4b be dd 05 b3 be 27 e1 72 bf
       -0.09102564 -0.19901301 -0.3496541 -0.94874805
0000e0 56 35 8c bf f9 2b f6 bf 55 ce 06 3e 5a ac 5a bf
       -1.0953777 -1.9232169 0.13164647 -0.8541924
0000f0 7b 52 11 bf c7 9d 99 3e 35 29 12 3e 93 d3 05 bf
       -0.5676648 0.30003187 0.14273532 -0.5227596

role_emb.weight f4 [1, 4]
000000 2a 1f 82 3f c5 f2 0c 3f f8 ea 8e bf 21 f5 c6 3f
       1.016576 0.55057937 -1.1165457 1.5543557

vclass_emb.weight f4 [6, 4]
000000 11 07 93 3f 8f 31 eb bf ca cc 9e bf 66 d0 d9 3f
       1.1486531 -1.8374499 -1.2406247 1.7016723
000010 87 44 2b c0 93 fd cf be 89 b4 b5 3d 73 5f 95 3f
       -2.6760576 -0.4062315 0.08872325 1.1669754
000020 d4 bf d4 be b5 fa 25 bf 74 47 a4 3f 48 ae da 3e
       -0.41552603 -0.64835674 1.2834306 0.4271109
000030 9f 9a d4 3f 89 22 e2 3f 3e af 72 bf e7 62 09 be
       1.6609687 1.7666789 -0.9479865 -0.13416635
000040 01 c9 98 3e ff 00 d4 bf ea 7c 1b 3d 92 fe 01 40
       0.29840854 -1.6562804 0.037960924 2.0311627
000050 c0 22 f1 3e 07 97 79 3f aa f3 a6 bf 1f e9 f0 3f
       0.47096825 0.97496074 -1.304311 1.8821143

nation_emb.weight f4 [12, 4]
000000 3d 72 a6 bf a9 f8 0e bf 12 22 a1 3f 11 e5 4f be
       -1.3003613 -0.55848175 1.2588522 -0.20302226
000010 c7 60 64 3f f0 4d af 3f 07 07 96 be c1 32 0d be
       0.8921017 1.369566 -0.29302236 -0.13788892
000020 f4 63 1a bf 66 e3 74 3f 9c cb 0d 40 4d 03 d5 be
       -0.60308766 0.9565948 2.2155523 -0.4160408
000030 3d 55 f4 bf 5c 75 cc 3f e3 fb 4c 3f 25 5c 8d 3d
       -1.9088513 1.5973315 0.8007185 0.06902341
000040 5b ec f6 be 68 c9 a9 bf d0 da 31 3c 01 ce 7e bf
       -0.482272 -1.3264589 0.010855392 -0.99533087
000050 83 fb b7 bf d9 20 81 bd e7 1c 5f 3e 44 2b 16 bd
       -1.437363 -0.06305093 0.21788369 -0.036662355
000060 10 a0 52 3f 3a 94 2f 3f 80 42 93 3f d6 61 a6 bf
       0.82275486 0.6858555 1.1504669 -1.2998607
000070 72 09 b5 be 7a a4 0e 40 7b bb f0 3f 53 f8 db bf
       -0.3535877 2.2287889 1.8807214 -1.7185158
000080 c7 be ab 3f dc 55 97 be 53 40 b2 3f 03 d6 8e bf
       1.3417596 -0.29557693 1.392588 -1.1159061
000090 d2 f5 58 3e ed dd 43 3f 28 28 d5 3d 9b 4b 3c 3f
       0.21187523 0.76510507 0.1040805 0.73552865
0000a0 dc 81 20 3c e3 33 21 3f 3f d2 49 bf 28 8c 32 3e
       0.009796586 0.629698 -0.78836435 0.17436278
0000b0 b6 01 51 3f 19 ce e3 be 32 24 6b 3e 65 e8 84 3f
       0.81643236 -0.44493178 0.22963026 1.0383421

player_encoder.0.weight f4 [128, 40]
000000 c4 8e fe 3d ab 96 09 bd 86 a9 90 3d e4 e3 88 bd
       0.12429574 -0.033590954 0.07063584 -0.06684092
000010 72 d0 84 3d c8 28 c6 3d 7e e8 d1 bd fa ae f9 bd
       0.0648507 0.09675747 -0.102494225 -0.12191577
000020 de 72 c8 bd c1 66 f5 3c 2a 61 e4 bd 40 21 4f 3d
       -0.09787534 0.029956223 -0.11151345 0.05056882
000030 99 03 ec bd 87 cd 74 3d 66 82 07 3e b2 45 bd bb
       -0.11524124 0.05976632 0.13233337 -0.0057761306
000040 69 c8 07 3d 05 6c 2f 3d c7 c7 b6 3c 98 67 d9 3d
       0.03315011 0.042827625 0.022312058 0.10615462
000050 6b a7 0a be c9 61 ab 3d e9 99 3f 3d ce 18 d0 3c
       -0.13540427 0.083682604 0.04677764 0.025402453
000060 15 7d c1 bc 60 e8 1e 3e 2f 0e 11 3e e8 4b e8 3d
       -0.023619214 0.15518332 0.14165567 0.11342603
000070 58 e8 98 bb 8d 79 ce bd 32 48 db bd 6d 0e 19 3d
       -0.0046663694 -0.10081778 -0.107071295 0.037367273
000080 71 6d 74 3d cd 4f 1d bc 0f 14 ba 3c a6 df bc 3b
       0.059674684 -0.0096015455 0.022714643 0.0057639657
000090 87 12 3b 3d 1b 2c a4 bd 22 18 9f 3d a1 31 9b bd
       0.045671966 -0.08016225 0.07768275 -0.07577825
0000a0 fd c7 cd bd e1 05 bf bc f5 a0 1b bd 27 55 78 3d
       -0.1004791 -0.023318233 -0.037995297 0.060628083
0000b0 5a a5 97 bd e6 0e 88 3d dd e9 3b bd 81 d6 03 be
       -0.07404585 0.06643467 -0.045877326 -0.12874795
0000c0 c1 c1 fe bd 15 a4 18 3d 5f 1b fd bd c8 9b e6 3d
       -0.124392994 0.037265856 -0.12358736 0.11260182
0000d0 da 14 15 3e e6 c7 31 bd 96 c7 9d 3c ed 7b 69 3d
       0.14558735 -0.04340353 0.019260209 0.05700295
0000e0 45 60 b1 3d b6 95 b1 3d 55 16 90 bd c5 61 b9 bd
       0.0866094 0.08671133 -0.070355095 -0.09051851
0000f0 4d 6a 16 be d7 0d 15 bc d1 17 c5 bc 44 3a e0 3d
       -0.14688988 -0.009097538 -0.024059208 0.10948613
000100 e7 42 7c 3d 45 ba 46 3d b6 b2 f6 bd 80 57 d0 3d
       0.06158724 0.048517484 -0.12045805 0.10172939
000110 be 63 c2 bd bb bb 1e 3d e5 6d eb bd 04 18 ad 3d
       -0.094916806 0.038753252 -0.1149557 0.08451846
000120 3c 31 92 bd 14 2e d4 3d 0b 5e 11 bd 18 e6 18 be
       -0.07138297 0.10360351 -0.035490077 -0.14931524
000130 87 1c 55 bd 63 41 6c 3d 63 bd a9 bd 87 5d d2 bc
       -0.05202916 0.057679545 -0.08288076 -0.025679363
000140 01 35 d6 bd 59 96 d0 3c d7 df 8b bc a2 64 c7 bd
       -0.104593284 0.025462316 -0.017074509 -0.09735991
000150 5a 35 00 3e 75 9e 61 bc 52 a0 c9 bd e3 d6 d0 bd
       0.12520352 -0.013770689 -0.09845032 -0.101972364
000160 88 8f 1d be 2f cb 7d bd a5 f4 16 3e d3 a6 15 be
       -0.15386784 -0.06196135 0.14741762 -0.1461442
000170 df f2 87 bc f0 2d 0f 3e 13 8d 18 be 88 2b 15 be
       -0.016595302 0.13982368 -0.14897566 -0.14567387
000180 de 61 e8 bd b2 ee e6 3c b7 e6 3b bd a7 13 be bd
       -0.11346792 0.02818999 -0.045874324 -0.09281092
000190 13 4c e0 bd cd 44 15 bd 11 e5 13 be ec 0b 91 bd
       -0.1095201 -0.036442567 -0.1444285 -0.07082352
0001a0 6b 14 ed bd eb 7e c2 3c 56 96 1e 3c 14 95 e6 bd
       -0.1157616 0.02374216 0.009679398 -0.11258903
0001b0 a7 48 0e 3e 68 ea 17 bc a1 b0 e9 3d e5 1d e2 3d
       0.13894902 -0.009272195 0.114106424 0.11040858
0001c0 72 08 ae 3d 18 33 df 3d e5 66 cb bd b3 5c 13 3d
       0.084977046 0.10898417 -0.09931735 0.035977077
0001d0 b9 00 db bc 25 88 54 bd e7 3f 09 be cf 48 bf 3d
       -0.026733743 -0.05188765 -0.13403283 0.09340059
0001e0 98 58 a0 bb 4e c6 0f bb e0 43 e3 3d 77 bb 61 bd
       -0.0048933737 -0.0021938267 0.110969305 -0.05511042
0001f0 85 f5 0c be ba 7b 06 3c 38 c8 14 3e 4f 5a 6d 3d
       -0.13765533 0.00820821 0.14529502 0.057947453
000200 c1 ca 10 be c2 56 00 be d0 6c 8b bd 35 e3 68 bd
       -0.14139844 -0.12533095 -0.06807864 -0.056857307
000210 eb fd f2 ba 0b 90 8d 3d 38 7f fc 3d 88 74 ed 3d
       -0.0018538808 0.0691224 0.123289526 0.11594492
000220 d4 71 e1 3d 87 6d d2 3c 0e cb db 3c 7e 4d 06 be
       0.11008039 0.025686992 0.026830222 -0.13115498
000230 2d 3f 7b bc 30 92 bc bd c4 47 d3 3d 42 4b aa bc
       -0.0153348865 -0.092075706 0.103164226 -0.020787839
000240 b3 96 84 3d a3 ed 14 be 61 dd bd 3c c2 61 b2 3d
       0.06474056 -0.14543776 0.02317685 0.08710052
000250 ab e3 ee bd a7 3e 48 bd 41 7c 8a 3c 21 e2 dc bc
       -0.11664518 -0.048887875 0.016904952 -0.026963295
000260 49 f3 1d be 9c 76 e3 bd 34 1c e0 bd 5c ff 1c 3e
       -0.15424837 -0.11106607 -0.10942879 0.15331787
000270 14 48 f7 3d 3f 9b 97 3c aa aa df bd 8c 53 f8 bd
       0.12074295 0.018506644 -0.109212235 -0.1212531
000280 fe a7 82 3d 6b 78 0e be c1 d4 3e bd bf e5 33 bd
       0.06379698 -0.13913123 -0.046589617 -0.043920275
000290 64 fc c8 3d cb 8b 56 3d 58 ae d1 bd dc f7 0e 3e
       0.09813765 0.05237941 -0.102383316 0.13961738
0002a0 fc c4 8a bd ea 86 a1 3d 5d f3 5b 3d ea 72 1c be
       -0.06775853 0.07887061 0.053698886 -0.15278211
0002b0 10 cb de 3d 18 b2 18 be 2c df 0b 3e 5f cb 86 bd
       0.10878575 -0.14911687 0.13659352 -0.06581759
0002c0 7f 69 c9 bd f9 f5 9f 3c 93 6c 35 3d 71 37 18 be
       -0.09834575 0.019526469 0.044292998 -0.14864899
0002d0 ff f8 47 bd f4 c1 03 be 61 35 bf bd 2c c9 5f bd
       -0.048821446 -0.12866956 -0.09336353 -0.05463521
0002e0 9a c2 7d 3c f1 67 09 bd b1 2c 18 3d 61 b9 4b 3d
       0.015488291 -0.033546392 0.037151996 0.049737338
0002f0 24 d7 d2 3d 64 39 00 3e 44 97 aa 3b c6 45 b7 3d
       0.10294941 0.12521893 0.0052060205 0.08948855
000300 8e ec c7 3c 29 92 92 3d e5 91 4b 3d e3 21 4f 3d
       0.02440479 0.07156784 0.049699683 0.050569426
000310 37 4e 25 3d 8a 44 0c 3e 69 41 ad bd 0e a5 94 bd
       0.040357795 0.1369802 -0.084597416 -0.07258044
000320 14 26 f4 3d 76 49 2d bb 32 f7 86 3d 8d 51 54 3d
       0.11921325 -0.0026441491 0.065901175 0.051835585
000330 0a b7 42 bd 43 9f d6 bb bd 57 47 bc 17 a3 f3 3d
       -0.04753784 -0.006549747 -0.0121669145 0.11896341
000340 6d 78 3f bd 3a 6f 18 be 89 07 0e be 89 bb 97 bd
       -0.046745706 -0.1488618 -0.13870062 -0.07408816
000350 d4 bc eb 3d 1c 15 ae bc 15 59 00 be f4 63 0d bc
       0.115106255 -0.0212503 -0.12533982 -0.008629788
000360 19 67 a6 bb 5a a8 10 3e 19 8c 55 bd a3 1c b8 bc
       -0.005078208 0.14126721 -0.05213556 -0.022474593
000370 1e fd 0f be 8d 0b d3 bd 30 d1 04 be 4c fd 20 3c
       -0.140614 -0.103049375 -0.12970424 0.009826016
000380 9c 55 2d bc 4f bd 15 be 57 e2 c3 3d 91 f3 bf bd
       -0.010579493 -0.14622997 0.09564655 -0.093726285
000390 d7 db 03 be 84 14 13 be b6 8b 07 3e 44 ea c4 3d
       -0.12876831 -0.14363295 0.13236889 0.09614995
0003a0 d8 25 e5 bd b7 6f 61 bd 9d b8 8b 3d 20 dd d0 bd
       -0.11188859 -0.05503818 0.068223216 -0.10198426
0003b0 b1 2c 85 3d 58 3e 03 3e 91 0a 3b bd b7 c8 bc bd
       0.06502665 0.12816751 -0.045664374 -0.09217971
0003c0 d3 5f 70 bd 73 3d 15 bd 42 4d 2a bc d1 eb 89 bc
       -0.058685135 -0.036435556 -0.010394396 -0.016836079
0003d0 bc c8 13 be 9b 40 21 be ad ab 08 3c e7 d8 05 be
       -0.14432043 -0.15747301 0.008341712 -0.13071023
0003e0 57 55 ba bd c8 b2 af 3b f1 8e 46 3d f7 50 34 3d
       -0.090983085 0.0053618886 0.048476163 0.044022527
0003f0 20 5f 85 bd fb 6a c7 3b 7f 98 1e bd 38 c2 17 be
       -0.06512284 0.006085751 -0.03871965 -0.14820182

player_encoder.0.bias f4 [128]
000000 55 20 bb bd b8 6e d7 bd 87 69 8a 3d 3c 18 06 3e
       -0.09137026 -0.10519165 0.06758409 0.13095182
000010 58 fb fc 3d 18 01 01 3e 54 5f 06 3c aa 0f bd bd
       0.123526275 0.12598073 0.008201439 -0.09231503
000020 ec c3 d2 bd 28 18 eb bd 3c 52 9f 3d 9c 72 91 bd
       -0.102912754 -0.11479217 0.07779357 -0.07101938
000030 ba 61 e1 bd fe 2e 11 3e f8 6b d8 bd e8 80 bc bd
       -0.11004968 0.14178082 -0.105674684 -0.092042744
000040 ab e3 57 bd 88 84 17 3e 9c 70 a5 3d 7f a2 b6 bc
       -0.052707355 0.1479665 0.08078119 -0.022294281
000050 8b 03 6b bd 45 60 03 be 88 ec 0c bd 20 27 0a 3e
       -0.057376426 -0.12829693 -0.03440526 0.13491488
000060 a8 4d 08 3e 28 96 9b 3d 4f 56 02 be d2 0b ad 3d
       0.13310874 0.075969994 -0.12728237 0.0844952
000070 4c 39 d1 3d 16 db ee 3c f9 0d 73 3d 96 5c d7 bd
       0.10216007 0.029157203 0.059339497 -0.10515706
000080 62 82 07 3e 0a 9d 0d be e6 e4 0d be 3e 49 d3 3c
       0.13233331 -0.13829437 -0.13856849 0.02579176
000090 33 86 00 3d 6c 26 0a be cd a8 5e bd 82 8d 15 3e
       0.031377982 -0.1349122 -0.0543602 0.14604762
0000a0 4c 5b d9 3d 81 f2 02 bd 98 3f e1 3d 8f f6 59 3d
       0.106131166 -0.03196955 0.10998458 0.053213652
0000b0 82 ab 2c bd 27 95 0c be 60 d8 90 3d 74 53 85 3d
       -0.04215575 -0.13728772 0.0707252 0.06510058
0000c0 64 09 df bd 5b eb 0b be 7a bc 8d 3d 1b 60 0e bd
       -0.10890463 -0.13664 0.06920715 -0.034759622
0000d0 fc 3b 0f 3e 06 d6 9b 3d c7 c7 b3 3d 68 57 cb bd
       0.13987726 0.07609181 0.08778339 -0.09928781
0000e0 00 52 e8 bd bc 69 e4 3d 8b e8 c8 bd 7b 5e 09 be
       -0.11343765 0.1115298 -0.09809979 -0.13414948
0000f0 36 af a3 3d 53 21 f9 3d 1a cb e4 bd 3f d8 e3 bd
       0.07992403 0.12164559 -0.11171551 -0.1112523
000100 81 9d 7e bd 1f a4 99 3c 3f 0b d1 3c a0 a1 13 3e
       -0.062161926 0.018755017 0.025518058 0.14417124
000110 b0 70 f7 bd 5c a6 01 bd 33 02 88 3d ba 58 09 3e
       -0.1208204 -0.031652793 0.066410445 0.13412753
000120 d7 4b d0 bc b9 7a cb bd 95 14 09 3d fb dc 03 bd
       -0.025426788 -0.09935517 0.033466894 -0.032193165
000130 37 98 20 bd 83 af 6b bd 89 67 92 bd 4a 80 16 be
       -0.039207663 -0.057540428 -0.07148654 -0.14697376
000140 42 97 99 3d ce 64 23 3c 7e b9 6f bc b2 dd a3 3d
       0.07499553 0.009972764 -0.014631627 0.080012694
000150 b1 23 1a bd 2f 5f 07 be 0f 1a 12 3d a4 19 0f 3e
       -0.037631694 -0.13219903 0.035669383 0.13974625
000160 3b fd 2b bd 14 89 66 bd b3 d7 d1 3c ac 9b c4 3d
       -0.041989546 -0.05628307 0.025615549 0.096000046
000170 3d 3e ff bd 2e 0e 1d be e0 db 17 3e 4b 17 a8 3d
       -0.12463043 -0.1533744 0.1482997 0.08207568
000180 e1 d2 37 bd 8f f1 01 3d c8 1a a8 3d 0d 25 6e bd
       -0.044878844 0.03172451 0.08208233 -0.058140803
000190 0b 08 2f bd e3 45 a0 bd 09 6f 16 3d a5 0f f1 3d
       -0.04273228 -0.0782583 0.036726985 0.11770562
0001a0 1e d4 20 be c3 3b 56 3d 4c 60 00 3e 25 c3 f0 bd
       -0.15705916 0.052303087 0.12536734 -0.11755971
0001b0 52 5a 1c 3e 91 b2 79 bd 51 4f 2c bd bb 7d f1 3d
       0.1526883 -0.06096131 -0.04206783 0.11791559
0001c0 61 69 0e be 1e 2b 82 bd 5f c8 01 3e bb 60 59 bd
       -0.13907386 -0.0635588 0.12674092 -0.053070765
0001d0 dd 75 fb 3c 84 89 1f 3e 3f 73 a7 3c 88 a3 e7 bd
       0.03069585 0.15579802 0.020440696 -0.11310488
0001e0 3a 2b f1 bd 89 76 9c bd 74 61 12 be 2c 23 f2 3d
       -0.11775823 -0.07639796 -0.14294988 0.11823115
0001f0 d8 74 95 bc f0 6b 8c 3d 28 82 b8 bd ae 77 c5 3c
       -0.018244192 0.06856525 -0.090092 0.02410492

player_encoder.1.weight f4 [128]
000000 72 f9 7f 3f 47 03 80 3f 47 03 80 3f 47 03 80 3f
       0.9999 1.0001 1.0001 1.0001
000010 47 03 80 3f 72 f9 7f 3f 72 f9 7f 3f 47 03 80 3f
       1.0001 0.9999 0.9999 1.0001
000020 72 f9 7f 3f 47 03 80 3f 72 f9 7f 3f 47 03 80 3f
       0.9999 1.0001 0.9999 1.0001
000030 47 03 80 3f 47 03 80 3f 47 03 80 3f 72 f9 7f 3f
       1.0001 1.0001 1.0001 0.9999
000040 47 03 80 3f 72 f9 7f 3f 47 03 80 3f 72 f9 7f 3f
       1.0001 0.9999 1.0001 0.9999
000050 72 f9 7f 3f 47 03 80 3f 73 f9 7f 3f 46 03 80 3f
       0.9999 1.0001 0.99990004 1.0000999
000060 72 f9 7f 3f 72 f9 7f 3f 47 03 80 3f 47 03 80 3f
       0.9999 0.9999 1.0001 1.0001
000070 47 03 80 3f 47 03 80 3f 72 f9 7f 3f 47 03 80 3f
       1.0001 1.0001 0.9999 1.0001
000080 72 f9 7f 3f 47 03 80 3f 47 03 80 3f 73 f9 7f 3f
       0.9999 1.0001 1.0001 0.99990004
000090 47 03 80 3f 47 03 80 3f 72 f9 7f 3f 72 f9 7f 3f
       1.0001 1.0001 0.9999 0.9999
0000a0 72 f9 7f 3f 47 03 80 3f 47 03 80 3f 47 03 80 3f
       0.9999 1.0001 1.0001 1.0001
0000b0 72 f9 7f 3f 72 f9 7f 3f 72 f9 7f 3f 47 03 80 3f
       0.9999 0.9999 0.9999 1.0001
0000c0 47 03 80 3f 72 f9 7f 3f 47 03 80 3f 72 f9 7f 3f
       1.0001 0.9999 1.0001 0.9999
0000d0 72 f9 7f 3f 47 03 80 3f 72 f9 7f 3f 72 f9 7f 3f
       0.9999 1.0001 0.9999 0.9999
0000e0 72 f9 7f 3f 47 03 80 3f 72 f9 7f 3f 72 f9 7f 3f
       0.9999 1.0001 0.9999 0.9999
0000f0 47 03 80 3f 47 03 80 3f 72 f9 7f 3f 47 03 80 3f
       1.0001 1.0001 0.9999 1.0001
000100 72 f9 7f 3f 47 03 80 3f 47 03 80 3f 47 03 80 3f
       0.9999 1.0001 1.0001 1.0001
000110 72 f9 7f 3f 47 03 80 3f 72 f9 7f 3f 72 f9 7f 3f
       0.9999 1.0001 0.9999 0.9999
000120 72 f9 7f 3f 47 03 80 3f 72 f9 7f 3f 72 f9 7f 3f
       0.9999 1.0001 0.9999 0.9999
000130 47 03 80 3f 72 f9 7f 3f 47 03 80 3f 72 f9 7f 3f
       1.0001 0.9999 1.0001 0.9999
000140 47 03 80 3f 47 03 80 3f 72 f9 7f 3f 72 f9 7f 3f
       1.0001 1.0001 0.9999 0.9999
000150 44 03 80 3f 47 03 80 3f 47 03 80 3f 72 f9 7f 3f
       1.0000997 1.0001 1.0001 0.9999
000160 72 f9 7f 3f 72 f9 7f 3f 72 f9 7f 3f 77 f9 7f 3f
       0.9999 0.9999 0.9999 0.9999003
000170 72 f9 7f 3f 47 03 80 3f 47 03 80 3f 72 f9 7f 3f
       0.9999 1.0001 1.0001 0.9999
000180 47 03 80 3f 47 03 80 3f 47 03 80 3f 47 03 80 3f
       1.0001 1.0001 1.0001 1.0001
000190 47 03 80 3f 47 03 80 3f 72 f9 7f 3f 47 03 80 3f
       1.0001 1.0001 0.9999 1.0001
0001a0 72 f9 7f 3f 47 03 80 3f 72 f9 7f 3f 72 f9 7f 3f
       0.9999 1.0001 0.9999 0.9999
0001b0 47 03 80 3f 72 f9 7f 3f 47 03 80 3f 47 03 80 3f
       1.0001 0.9999 1.0001 1.0001
0001c0 72 f9 7f 3f 47 03 80 3f 73 f9 7f 3f 47 03 80 3f
       0.9999 1.0001 0.99990004 1.0001
0001d0 72 f9 7f 3f 72 f9 7f 3f 47 03 80 3f 72 f9 7f 3f
       0.9999 0.9999 1.0001 0.9999
0001e0 72 f9 7f 3f 72 f9 7f 3f 72 f9 7f 3f 72 f9 7f 3f
       0.9999 0.9999 0.9999 0.9999
0001f0 47 03 80 3f 72 f9 7f 3f 72 f9 7f 3f 47 03 80 3f
       1.0001 0.9999 0.9999 1.0001

player_encoder.1.bias f4 [128]
000000 d9 b5 d1 b8 b1 b6 d1 38 3a b4 d1 38 b9 b6 d1 38
       -9.9997684e-05 9.9999255e-05 9.9994664e-05 9.999931e-05
000010 c6 b6 d1 38 63 b6 d1 b8 e0 b4 d1 b8 7b b6 d1 38
       9.999941e-05 -9.999869e-05 -9.999587e-05 9.999886e-05
000020 10 b6 d1 b8 a9 b6 d1 38 ce b6 d1 b8 6e b6 d1 38
       -9.9998084e-05 9.99992e-05 -9.9999466e-05 9.999877e-05
000030 34 b6 d1 38 90 b6 d1 38 4e b6 d1 38 b2 b6 d1 b8
       9.9998346e-05 9.9999015e-05 9.9998535e-05 -9.999926e-05
000040 f9 b2 d1 b8 3a b6 d1 b8 c5 b6 d1 38 97 b6 d1 b8
       -9.999233e-05 -9.999839e-05 9.99994e-05 -9.9999066e-05
000050 e8 b6 d1 b8 ac b6 d1 38 51 b5 d1 b8 f8 b4 d1 b8
       -9.9999656e-05 9.999922e-05 -9.9996694e-05 -9.999605e-05
000060 64 b6 d1 b8 5d b5 d1 b8 a1 b6 d1 38 0b b6 d1 38
       -9.9998695e-05 -9.999678e-05 9.999914e-05 9.999805e-05
000070 8d b4 d1 38 dc b4 d1 38 37 b6 d1 b8 9e b6 d1 38
       9.999527e-05 9.999584e-05 -9.999837e-05 9.999912e-05
000080 e4 b6 d1 b8 90 b6 d1 38 02 b6 d1 38 fd b5 d1 38
       -9.999963e-05 9.9999015e-05 9.999798e-05 9.9997946e-05
000090 5b b4 d1 38 ae b5 d1 b8 55 b3 d1 38 a0 b6 d1 b8
       9.9994904e-05 -9.999737e-05 9.9993e-05 -9.999913e-05
0000a0 a4 b6 d1 b8 7e b6 d1 38 b8 b5 d1 b8 77 b6 d1 38
       -9.999916e-05 9.9998884e-05 -9.999744e-05 9.999883e-05
0000b0 e7 ae d1 b8 ba b5 d1 b8 7e b6 d1 b8 63 b4 d1 38
       -9.998475e-05 -9.999746e-05 -9.9998884e-05 9.999496e-05
0000c0 90 b6 d1 38 3c b5 d1 b8 84 b6 d1 38 dd b5 d1 b8
       9.9999015e-05 -9.999654e-05 9.999893e-05 -9.999771e-05
0000d0 a2 b4 d1 38 44 b6 d1 38 6d b5 d1 b8 74 b6 d1 b8
       9.999542e-05 9.999846e-05 -9.99969e-05 -9.999881e-05
0000e0 ab b6 d1 b8 8a b6 d1 38 99 b5 d1 b8 b8 b6 d1 b8
       -9.999921e-05 9.999897e-05 -9.999722e-05 -9.9999306e-05
0000f0 56 b6 d1 38 9b b3 d1 38 db b6 d1 b8 9d b6 d1 38
       9.999859e-05 9.999351e-05 -9.999956e-05 9.999911e-05
000100 ca b5 d1 b8 a0 b6 d1 38 85 b6 d1 38 ef b6 d1 38
       -9.9997575e-05 9.999913e-05 9.9998935e-05 9.999971e-05
000110 24 b6 d1 b8 ff 88 d1 38 45 b5 d1 b8 80 b6 d1 b8
       -9.999823e-05 9.991414e-05 -9.999661e-05 -9.99989e-05
000120 70 b6 d1 b8 33 b5 d1 38 ae b4 d1 b8 c5 b6 d1 b8
       -9.999878e-05 9.9996476e-05 -9.999551e-05 -9.99994e-05
000130 82 b6 d1 38 a3 b6 d1 b8 5d b6 d1 38 16 b6 d1 b8
       9.999891e-05 -9.999915e-05 9.9998644e-05 -9.999813e-05
000140 23 b6 d1 38 9c b6 d1 38 8f b6 d1 b8 aa b6 d1 b8
       9.999822e-05 9.99991e-05 -9.999901e-05 -9.9999204e-05
000150 90 9d d1 b8 e9 b5 d1 38 02 b6 d1 38 32 b6 d1 b8
       -9.995245e-05 9.99978e-05 9.999798e-05 -9.999833e-05
000160 5b b6 d1 b8 eb b2 d1 b8 fd b5 d1 b8 d3 b4 d1 38
       -9.999863e-05 -9.999223e-05 -9.9997946e-05 9.999578e-05
000170 cb b3 d1 38 d1 b6 d1 38 f1 b5 d1 38 01 b4 d1 b8
       9.999386e-05 9.999949e-05 9.999786e-05 -9.999425e-05
000180 73 b5 d1 38 c7 b6 d1 38 82 b6 d1 38 92 b6 d1 38
       9.999694e-05 9.9999415e-05 9.999891e-05 9.999903e-05
000190 0f b5 d1 38 7e b6 d1 38 bd b6 d1 b8 7c b4 d1 b8
       9.9996214e-05 9.9998884e-05 -9.999934e-05 -9.9995144e-05
0001a0 7d b6 d1 b8 d9 b5 d1 38 31 b6 d1 b8 36 80 d1 b8
       -9.999888e-05 9.9997684e-05 -9.9998324e-05 -9.989778e-05
0001b0 b5 b6 d1 38 d9 b6 d1 b8 39 b6 d1 38 a2 b4 d1 38
       9.9999284e-05 -9.999955e-05 9.999838e-05 9.999542e-05
0001c0 4a b6 d1 38 88 b6 d1 38 86 b2 d1 b8 df b6 d1 38
       9.9998506e-05 9.999896e-05 -9.999149e-05 9.999959e-05
0001d0 07 b4 d1 38 7c b6 d1 b8 4e b6 d1 38 7c b3 d1 38
       9.999429e-05 -9.999887e-05 9.9998535e-05 9.999328e-05
0001e0 86 b6 d1 b8 e1 b4 d1 b8 b1 b6 d1 b8 c7 b6 d1 b8
       -9.999894e-05 -9.999588e-05 -9.9999255e-05 -9.9999415e-05
0001f0 ab b4 d1 38 ad b6 d1 b8 88 b6 d1 b8 5f b3 d1 38
       9.999549e-05 -9.9999226e-05 -9.999896e-05 9.999307e-05

player_encoder.4.weight f4 [128, 128]
000000 3d de 5a bc 23 e6 c2 bc 58 40 32 bd 15 7c 0d 3d
       -0.01335865 -0.023791378 -0.043518394 0.034542162
000010 2f f8 9d bd 2c 95 6e 3d 07 0a ac 3d 78 45 d3 bc
       -0.07713353 0.05824773 0.0840035 -0.025789961
000020 94 d0 47 bc 70 0c 56 3d 4b bd 73 bd f9 96 e9 3c
       -0.012195725 0.052257955 -0.059506696 0.028514372
000030 79 ec 8f bd 23 c1 8b 3d 44 b2 62 3d 68 c3 aa 3a
       -0.070275255 0.06823947 0.05534579 0.0013028206
000040 de 1d 09 bd 8d 90 5f 3d 80 97 6b bd 02 41 a8 bd
       -0.03347575 0.054581214 -0.05751753 -0.08215524
000050 48 bd 93 bd 57 25 78 bd db f1 1e bc f7 25 a5 3d
       -0.07213837 -0.060582485 -0.0097012175 0.08063882
000060 02 82 ac bd ad 5f 6c 3d 1a c6 9f 3d ff 93 92 3d
       -0.084232345 0.05770843 0.07801457 0.07157134
000070 15 9f 61 bd d9 1f a4 3d f5 0d 3f 3d 3b e2 1a 3d
       -0.055083353 0.08013887 0.04664417 0.037813406
000080 df f9 a5 3d f6 9a 08 3d 1b 58 a1 bd 79 b0 54 3d
       0.081043 0.033350907 -0.07878133 0.05192611
000090 5a 57 95 bc 09 ac aa bd 4a fb a1 bd 72 04 97 bd
       -0.018230129 -0.08333594 -0.07909258 -0.07373895
0000a0 13 38 6f bc 89 42 8f bc 7c fa ab bd 23 7b 38 bc
       -0.0146007715 -0.017487781 -0.083973855 -0.011259827
0000b0 f7 74 11 3d 4a 6f 83 bc a7 9f 6a bd 55 a5 0f 3d
       0.035511937 -0.016044278 -0.057281163 0.035069782
0000c0 9e d2 1e 3c 41 c0 7a bd 64 13 54 bd b2 a3 96 bd
       0.00969377 -0.061218504 -0.051776305 -0.07355441
0000d0 b5 d7 26 bd f7 0f 98 bd a5 b6 af bc af cd 6a 3d
       -0.040733058 -0.0742492 -0.021449396 0.05732506
0000e0 a9 ca 35 3d a1 44 5d bb 6b e7 62 3d ab 28 ca 3c
       0.044382725 -0.003376283 0.05539648 0.024677595
0000f0 6b 43 e1 bc 67 7e 1d 3d 60 52 90 3d 84 9c 90 bd
       -0.027497968 0.038450625 0.07046962 -0.07061103
000100 09 b4 83 3b 3c 3b 0e bd c6 93 30 bd dc bd c4 3b
       0.0040192646 -0.03472446 -0.043109678 0.0060040783
000110 c9 9d 99 3d 91 1d 82 3d 6b 8d 6b bd b3 9a 67 3d
       0.07500798 0.063532956 -0.057507914 0.056544017
000120 f1 89 1e bb 28 49 14 bd 6b c8 44 3d 7f 90 7b bd
       -0.0024191106 -0.03620258 0.048042696 -0.0614171
000130 dd ff a3 3d aa 19 47 bd 27 8f af 3b 56 26 cd b9
       0.080077864 -0.04860846 0.0053576413 -0.0003912921
000140 19 e7 ab 3d 1f 80 e1 bc db c0 9c bd 32 11 eb bc
       0.08393688 -0.027526913 -0.07653972 -0.028694723
000150 19 84 43 bd 4d db af 3d 3c 88 52 bd ab 89 7d bc
       -0.0477334 0.0858675 -0.051399454 -0.015474717
000160 57 17 28 bd 3a c0 e4 bb 5f 25 83 3d 41 40 b2 bd
       -0.041037884 -0.006980923 0.06403612 -0.08703662
000170 67 31 d5 bb d7 16 ae 3d 16 a8 86 bc 09 65 ad 3d
       -0.0065061334 0.0850045 -0.016437571 0.084665366
000180 50 22 aa bd ea b2 92 3d cd 79 a6 bc 31 67 a7 3d
       -0.08307326 0.071630314 -0.020321751 0.08173979
000190 f3 2e 29 bd 43 f7 9f 3d c8 ec 5c bd 7b ea b3 3d
       -0.04130454 0.07810833 -0.05393675 0.08784958
0001a0 fb 0a fa 3c e7 16 23 bd 62 38 c5 3c aa 4f 62 bd
       0.030522814 -0.039816763 0.024074737 -0.055251755
0001b0 85 67 ad 3d 6c f1 90 bd 5b 2d 4e 3d b8 6b 85 3d
       0.084670104 -0.070772976 0.050336223 0.06514686
0001c0 2b 83 ad bd 86 41 3b bd 88 6e 13 3d b8 54 73 3d
       -0.08472284 -0.045716785 0.035994083 0.059406966
0001d0 f7 7c b3 bc f5 09 94 3d 8e 32 c5 bc 81 15 7a 3d
       -0.021910174 0.07228462 -0.024071958 0.061055664
0001e0 7d a8 0a bd 35 03 7b bd b3 c5 29 bd 0b 4a 77 bc
       -0.03385209 -0.061282355 -0.041448306 -0.015093337
0001f0 a0 cc a1 bd 6f 10 72 bd 43 6c 45 3d 2f 7d 40 bd
       -0.07900357 -0.059097704 0.04819895 -0.046994384
000200 3b c6 90 3d 93 9d 53 bd 5b a9 42 bd 16 c5 9e 3d
       0.070690595 -0.051663946 -0.04752479 0.07752435
000210 b7 9b 97 3c 63 50 40 bd f4 93 16 bd 2d b6 2f 3d
       0.018506868 -0.046951663 -0.036762193 0.042898346
000220 44 46 9a bd 2f ec c9 3c 7a 72 d5 3c 2e e9 0b 3d
       -0.07532933 0.024648754 0.026055563 0.034157924
000230 6a 47 94 3b 2a 9e 2f bb bf ce cd bc b5 60 9d 3d
       0.004525115 -0.0026797154 -0.025122998 0.07684461
000240 3d fc d7 3c a0 70 b1 3d 66 d8 ae 3d e8 e3 58 bd
       0.026365394 0.0866406 0.085373685 -0.052951723
000250 02 38 7d bd e2 19 83 bc ee cb 47 3d e4 05 13 bc
       -0.06182099 -0.016003553 0.048778467 -0.008973572
000260 e1 ce a5 bc 11 20 8a 3d 8b 3a e3 3c ff 8b 28 3d
       -0.02024025 0.067443974 0.027737876 0.041149136
000270 31 60 d0 bc cf c8 a3 3d f7 70 72 bd 66 f8 b2 bd
       -0.025436493 0.079972856 -0.059189763 -0.087387845
000280 e5 98 76 bd c2 1d 69 3d c4 2a 5f bd 0f 87 6e 3d
       -0.060204405 0.056913145 -0.054484144 0.05823427
000290 58 df a0 bd 31 93 80 bd 09 83 60 bd 0a 42 f4 3c
       -0.078550994 -0.062780745 -0.054812465 0.029816646
0002a0 a3 c5 a2 bd 51 cb 68 3d 7d 69 d6 3b 7b dd 0c 3d
       -0.079478525 0.056834523 0.006543337 0.034390908
0002b0 ce 96 f6 3c ea ab f2 bc 56 1f 8a bd d8 a9 1a bd
       0.030101206 -0.02962299 -0.06744258 -0.037759632
0002c0 ea 6c ed 3c 03 f9 fc bc 35 a6 b5 bb 36 c1 b1 3d
       0.028982598 -0.030880457 -0.005543495 0.0867943
0002d0 82 b8 93 3c c6 fb 74 bd c3 26 86 bd cc d4 41 bb
       0.018032316 -0.059810422 -0.06550362 -0.00295763
0002e0 c6 29 b4 bd 76 b2 55 bd e5 12 a9 bc d6 6e 02 bd
       -0.0879703 -0.052172147 -0.020638892 -0.031843983
0002f0 3f 9d 5d bd 27 61 94 3d c5 ea 71 bd 3f f2 aa 3d
       -0.05410504 0.07245093 -0.059061784 0.08346986
000300 c0 16 33 3d eb b7 8b bd ec b1 a5 bc 6c 36 29 3d
       0.043722868 -0.06822189 -0.020226441 0.041311666
000310 d6 b5 c0 bb 6d 8c e3 bc fa 56 e0 3c d5 8b 43 3d
       -0.0058810515 -0.027776921 0.027385224 0.047740776
000320 e0 30 86 3d 17 45 44 bd 5b 4b 46 bd d0 87 81 bd
       0.06552291 -0.04791745 -0.04841171 -0.06324732
000330 bc 95 81 bb ef 33 22 bd 0d 0d 5c 3d 9c e2 66 bd
       -0.0039546173 -0.03960031 0.053723384 -0.056368455
000340 f7 61 8a 3d 25 30 4d 3d 8f 26 a5 3d a5 6c 52 3c
       0.067569666 0.050094742 0.08063995 0.012843286
000350 dc 9f 5a 3d 85 e3 78 3d 2d 59 7c 3d eb 2c 55 3d
       0.05337511 0.060763855 0.061608482 0.05204479
000360 51 4c 12 bd ba e8 6c bc 52 26 67 bd 81 e2 32 bd
       -0.035717312 -0.014459783 -0.05643303 -0.043673042
000370 14 f0 3d 3c cd 76 b4 3d ff 50 85 3d a7 c4 57 3d
       0.011592884 0.08811722 0.065095894 0.052677777
000380 21 e7 87 3d 7b c1 9c bd b5 cd 6d bd 7b d5 3f bd
       0.06635881 -0.07654091 -0.058057506 -0.04683445
000390 fe f1 80 bc e2 9a b1 3c 5c d4 90 bd 56 cf a1 3c
       -0.01574039 0.0216803 -0.07071754 0.019752186
0003a0 87 cd 50 bd f7 93 8b bc 99 86 87 3d b0 4d a7 3c
       -0.050977256 -0.017038329 0.06617469 0.020422786
0003b0 d5 81 24 bb fe ac ac 3d 79 6c a8 bd a4 46 51 bc
       -0.00251018 0.08431433 -0.082238145 -0.01277319
0003c0 bd ba 2b 3d 1f 45 73 bd e1 74 91 bd 56 88 4b 3c
       0.041926134 -0.05939209 -0.07102371 0.012422642
0003d0 6c 5b 3e 3d 7f 37 1d bd ac 33 46 bc 18 98 42 3d
       0.046473905 -0.038383003 -0.0120972805 0.04750833
0003e0 2c 4c 8c bb e3 54 f3 bc 34 a5 7d bc 01 3f 66 3d
       -0.0042815413 -0.029703563 -0.015481282 0.05621243
0003f0 8a d0 68 bd 51 c0 6a 3d e7 9a 01 3d 67 75 78 3d
       -0.056839503 0.057312313 0.031641867 0.06065884

player_encoder.4.bias f4 [128]
000000 11 b0 29 3d db 0c 9f 3d e0 0b 8b bd a5 73 8c bd
       0.041427676 0.07766124 -0.06789374 -0.06857995
000010 29 37 d7 3c 2b db 8e 3d b1 ec a7 3d 4d ce 0e 3d
       0.02627142 0.06975397 0.08199442 0.034864713
000020 a9 ef d2 3c 1f 0c 24 3d 9d 10 77 3d ed 04 7f 3d
       0.025749044 0.040050622 0.060318578 0.062260557
000030 c4 3e 3c 3c 75 ce 9f 3d c5 31 ae bc 2f 34 52 3c
       0.011489574 0.078030504 -0.021263966 0.012829824
000040 35 ca e6 bc 2a 26 bf bc 2b b8 10 bd 99 ac 10 3d
       -0.028172592 -0.023333628 -0.035331886 0.035320852
000050 c3 79 b1 bc ba 5c 96 3b 27 66 9e bc a1 48 9e bc
       -0.021664506 0.0045886906 -0.01933582 -0.019321742
000060 3b f4 e7 3c ff c4 90 bd 8b f9 5d 3d a9 e3 f7 bc
       0.0283147 -0.07068824 0.05419306 -0.030259924
000070 a1 85 12 3d 2a 35 32 3d ba 71 50 3d 61 3f 86 3d
       0.03577197 0.043507732 0.050889708 0.06555057
000080 6c f8 d0 bc 12 5e 91 bc fb 80 84 3d 74 30 4b 3d
       -0.025509082 -0.017745052 0.064699136 0.049606755
000090 42 72 82 3c af 3f 8f 3c b5 ad 06 3d 66 06 88 3c
       0.015923623 0.017486421 0.032880504 0.016604614
0000a0 5c 65 8e bd ba b3 27 bd 5d c8 8a 3c 85 f4 79 3d
       -0.069529265 -0.040942885 0.016941244 0.061024208
0000b0 a8 d0 8d bd 22 d1 07 bd db 6c 27 3c fb 01 91 3d
       -0.06924564 -0.03315843 0.010218824 0.07080456
0000c0 d9 66 2a bd 8f 1e 0a 39 b4 92 97 3b 69 70 01 bd
       -0.04160199 0.0001317209 0.0046256427 -0.031601343
0000d0 9e 1a 72 bc 07 28 86 3d 5d 34 8f 3d 52 91 b5 39
       -0.014776854 0.06550603 0.069924094 0.00034631282
0000e0 79 16 f2 3c 11 71 81 bd f3 55 59 bd 3b b0 d4 3c
       0.029551731 -0.06320394 -0.053060483 0.02596294
0000f0 eb 77 1d bd df f1 76 bd 9d 3d ab bd 83 b3 84 3d
       -0.03844444 -0.06028926 -0.08361361 0.06479552
000100 2f 85 a1 3d 87 96 08 3b 59 23 b9 bc 29 56 a0 3d
       0.07886731 0.0020841674 -0.022599863 0.07828934
000110 7a fb 12 bd 81 a8 99 bd fc 08 05 bd 44 0d ae 3d
       -0.035884358 -0.07502843 -0.03247927 0.08498624
000120 75 f0 31 3d 2a 5e d2 bc d7 7f f0 bc 79 c6 6d bd
       0.04344221 -0.025679667 -0.029357834 -0.058050606
000130 d3 70 5b 3c 34 23 93 bd 39 c6 c4 bc 9d 0a 81 3d
       0.013393599 -0.07184449 -0.024020301 0.063008524
000140 75 71 b2 3d 44 35 f4 bb 6f 4e ab 3d 0b eb a0 bc
       0.087130465 -0.007452639 0.083645694 -0.019643327
000150 0a f2 77 3d ce ec 16 bb c9 d5 31 3b 65 56 6d 3d
       0.06053356 -0.002302933 0.0027135483 0.05794372
000160 8b da 0c 3d 92 47 60 3c f6 4a 19 bd c9 eb 2f 3d
       0.034388106 0.013688939 -0.037425004 0.04294947
000170 88 75 1e bb b7 c4 5c 3d 7d 99 46 bc ed bf 94 3d
       -0.002417894 0.05389854 -0.012121555 0.072631694
000180 7b 3b 4c 3d 4e a3 9e bd 2d 08 86 3d 03 e0 a9 3c
       0.049861412 -0.07745992 0.06544528 0.0207367
000190 9d cf 97 3c ce 1a 3e bd 4f 73 98 bc f4 70 a6 bb
       0.018531615 -0.04641228 -0.01860967 -0.005079383
0001a0 78 db 96 bd aa 16 7f 3c 88 99 2f bd 1b 73 01 bc
       -0.07366079 0.015569368 -0.04287103 -0.007900978
0001b0 fd 92 49 3d 09 ee 80 3d c9 cb f8 bc 33 fa de bc
       0.049212445 0.062954016 -0.03037061 -0.027218914
0001c0 f3 f1 c4 bc af 68 aa 3d 65 d8 45 bc 3e 6a 89 bd
       -0.024041152 0.08320748 -0.012075518 -0.06709717
0001d0 ce 49 57 3d 4f 71 8d 3d de 05 91 bd 5f b3 f4 bc
       0.05256062 0.069063775 -0.07081197 -0.029870687
0001e0 b7 37 87 3d 57 3c 71 bd bd 9c 94 3d fe 01 85 3c
       0.06602424 -0.058895435 0.07256458 0.016236302
0001f0 76 3c 26 3c 72 46 05 3c 79 3e 58 3d f5 90 7d bd
       0.010146251 0.008134471 0.052793954 -0.06190582

attn.0.weight f4 [64, 128]
000000 38 41 15 bb 36 bd ac 3d ef 85 a1 3b 92 8b 61 bd
       -0.002277447 0.084345266 0.004929296 -0.055064745
000010 44 f3 14 bd 35 10 14 bc ca 9a a6 3d 38 2f 25 bd
       -0.03636481 -0.009037067 0.081349924 -0.040328234
000020 2d e6 43 3d da f6 e1 3b d7 3e cd b9 c6 3a 99 3c
       0.047826935 0.006895882 -0.00039147466 0.018704783
000030 60 61 64 bd 90 a1 eb 3c f6 23 61 bd 21 84 2d bd
       -0.055756927 0.028763562 -0.054965936 -0.042362336
000040 1e ac 04 bd dd a3 2c bd 98 a7 88 bd 2c 59 99 bd
       -0.032390706 -0.04214846 -0.06672591 -0.07487711
000050 fa 59 7d 3d 20 01 f0 bc 06 5d 46 bd 19 ea 9e 3d
       0.061853386 -0.029297411 -0.048428558 0.07759494
000060 95 9a a5 bd ac 63 83 bd d6 65 0c 3d 26 be d4 3c
       -0.08086125 -0.06415495 0.034276806 0.025969576
000070 b6 4d 91 bd 35 78 37 bd 8f 12 48 3b d5 e0 52 3d
       -0.070949 -0.044792373 0.003052864 0.051483948
000080 4c 1b cd bc ed 4f 95 bc 9d be f7 3c de 62 36 bc
       -0.02503743 -0.018226588 0.030242259 -0.01113197
000090 7f bd f6 38 f9 70 ca 3c b0 3e b3 bc 53 61 a5 3d
       0.000117654905 0.024712073 -0.021880478 0.08075204
0000a0 c5 d3 c6 bc 1d 1e 71 bd 4e 8a 7a bd 90 3d a0 3d
       -0.024270901 -0.05886661 -0.061167054 0.07824242
0000b0 8b ce b4 3d b5 58 2e bd 27 b7 f9 bc 56 16 2c 3c
       0.088284574 -0.042565066 -0.030482842 0.010503372
0000c0 a2 60 8b ba 55 0c 87 3d fe 23 85 3d c1 89 d8 3c
       -0.0010633657 0.06594149 0.065010056 0.026432874
0000d0 2d 97 98 bc c8 fa 67 bd f0 bb 8a bd 46 12 d3 3c
       -0.018626774 -0.056635648 -0.067741275 0.02576555
0000e0 35 c8 b7 3c a2 69 71 bc 03 b9 f2 bc 55 f1 b5 bc
       0.022434333 -0.0147346575 -0.029629236 -0.022209803
0000f0 fd 92 83 bb 68 d9 81 bd 82 2e c1 ba e2 fd 86 bc
       -0.004015325 -0.06340295 -0.0014738592 -0.016478483
000100 15 4f 76 bc 30 a5 1f bc 52 19 6b bd 20 5b ae 3d
       -0.015033503 -0.009743974 -0.057397194 0.085134745
000110 ba 84 a6 3c e9 5b d2 ba 8b 43 ab bc d5 60 27 bc
       0.02032696 -0.001604912 -0.02090623 -0.010215958
000120 ae 62 3d 3c cd 38 9b bd f1 3d a4 3c d1 a2 90 3c
       0.011559172 -0.07579193 0.020049067 0.017655762
000130 72 69 43 3d 0c 89 92 3d ff 7c 56 3c 25 e8 12 3d
       0.047707982 0.07155046 0.013091325 0.03586592
000140 ed a2 87 bb e4 49 85 3d db 88 a7 3a 50 2f 7d 3d
       -0.0041392953 0.06508234 0.0012781875 0.0618127
000150 08 36 37 3c c5 64 34 bd 92 47 3a 3d 1b 7d 94 3c
       0.011182316 -0.044041414 0.04547841 0.018126061
000160 80 fa c9 ba c6 bb 06 3d 05 0e 37 bd 2c 13 40 bc
       -0.0015409738 0.03289392 -0.044691104 -0.011723321
000170 e5 0a a6 3c 97 17 e9 bc 6f 61 1a 3d 6c ab 07 bd
       0.020268867 -0.028453631 0.037690576 -0.033122465
000180 24 70 06 bd 9b 4f 86 bd 42 e4 68 b9 8b cb 86 bd
       -0.03282179 -0.06558152 -0.00022210277 -0.065817915
000190 1a dd 50 3d 8a d2 79 bd d1 9f ae 3c 0a bb 90 3d
       0.05099211 -0.0609918 0.02131644 0.07066925
0001a0 cb b8 4c bc c0 65 99 bd f7 60 a0 3d 68 de af bd
       -0.01249523 -0.074901104 0.078309946 -0.085873425
0001b0 4d 92 8f bb b8 33 de 3c 03 04 83 3c 9e 5f 64 3d
       -0.004381454 0.02712427 0.015993124 0.05575525
0001c0 2b 43 84 3d 50 8d 1c bd 37 97 96 3c cd b6 90 3c
       0.06458124 -0.038220704 0.018382652 0.017665291
0001d0 52 42 63 bd 47 fd 09 3d 7e 8c 3e bd a6 be a2 bd
       -0.05548317 0.03368881 -0.046520703 -0.079465196
0001e0 24 81 4b bd ad a4 b1 3c 1e 31 4a 3b 66 ee 02 bd
       -0.049683705 0.021684969 0.003085203 -0.031965636
0001f0 ce cc 08 bc 96 11 48 bd 79 69 aa 3d b3 6a 9a 3d
       -0.0083496105 -0.048844896 0.083208986 0.075398825
000200 12 ed 87 ba e7 9a 47 bd 88 66 9e 3d 80 39 ef bc
       -0.0010370335 -0.04873171 0.077344 -0.029202223
000210 7e 52 8b bb 83 9d 89 3d 5c 46 93 bd 5d 55 92 bd
       -0.004251777 0.06719496 -0.07191154 -0.07145188
000220 85 ec 65 3d 54 e5 36 bd 3e 5d 83 bc 7c e4 13 bd
       0.056133766 -0.044652298 -0.016035672 -0.03610657
000230 2d 34 70 3d ff 7c 0b 3d 9c e8 bd bc 48 6a d9 3c
       0.05864351 0.034054752 -0.023182206 0.026539937
000240 e4 87 0e bd fe 14 95 3c 9c 7d c0 bb f0 48 b2 3b
       -0.034797564 0.018198486 -0.005874349 0.0054408237
000250 3c da 7e bd 02 99 17 bd 16 f9 48 3d 90 26 2b 3c
       -0.062219843 -0.037011154 0.04906567 0.010446206
000260 82 99 9a 3d 06 1c 49 bc 24 a2 0a bd 0a 23 60 bd
       0.075488105 -0.012274748 -0.033846036 -0.054720916
000270 89 b1 a2 bd c0 e2 a0 bd 83 57 30 3b 1c 78 8e bd
       -0.079440184 -0.07855749 0.002690763 -0.06956503
000280 9a 45 81 bc 87 43 72 bd 5f 15 19 bc b8 81 81 bd
       -0.015780259 -0.05914643 -0.009343474 -0.0632357
000290 3f ae ca 3c 25 dc d5 bc 2e cf f3 3c 32 99 65 b9
       0.02474129 -0.02610595 0.029761877 -0.00021896212
0002a0 c0 49 91 bd 79 78 37 3d ed e0 c2 3b e7 89 33 bd
       -0.07094145 0.044792626 0.0059472234 -0.043832686
0002b0 9c fa 4e 3d d1 1c 57 3d 48 d4 9d 3d 2d d4 91 bd
       0.05053197 0.052517716 0.07706505 -0.071205474
0002c0 ba c2 b0 bd 10 47 12 3d ec 9a 94 3d 95 23 c6 bc
       -0.08630891 0.0357123 0.072561115 -0.024186889
0002d0 33 44 97 bd cd c8 28 bc 4b 31 c1 3c ab 33 58 bd
       -0.07386055 -0.010301781 0.023583075 -0.05278365
0002e0 d6 10 5e bd 3f 30 1b 3d 6f 2a b0 3d 2a d4 72 bc
       -0.054215275 0.037887808 0.086018436 -0.014821092
0002f0 43 93 ba bc bd 3a 80 3d c1 b6 ec bc 22 97 50 bb
       -0.022775298 0.062612034 -0.028895738 -0.0031828363
000300 4d d0 97 bd 02 89 33 bc db a7 8a 3d 33 24 2a bd
       -0.07412777 -0.010957958 0.06770297 -0.04153843
000310 6d 0a a5 3c a4 f7 c6 3c e4 81 8e 3d a5 55 9c bb
       0.020146573 0.024288006 0.069583684 -0.004770952
000320 39 9b 06 bd b0 55 27 3d 7e 90 82 3d 2e ba 39 bc
       -0.032862876 0.040853202 0.06375216 -0.011335893
000330 05 ed 0f 3c ad 8b 9c bc 16 af f7 bc 70 dc d1 ba
       0.008784537 -0.019109571 -0.030234855 -0.001601113
000340 6d 5d 67 bd 8a f8 6d bd 9c 0a 9d bd 98 9d 25 bd
       -0.056485582 -0.058098353 -0.07668039 -0.040433496
000350 53 da 4e 3d e6 5a fc 3b 04 77 2d 3d 97 2f 36 bd
       0.05050118 0.0077012656 0.04234983 -0.04447898
000360 6f 20 a2 bc 3c df 68 3d 1f e3 5a bc 38 48 9b 3d
       -0.019790856 0.056853518 -0.013359814 0.07582134
000370 e1 60 2c bd 9c 89 d5 bc 10 7a 71 3d c4 b6 b3 3d
       -0.04208458 -0.026066594 0.0589543 0.08775094
000380 a8 b6 83 3d 6f 67 9b bc 2d fe 5e bd a5 7f 07 3d
       0.06431323 -0.01897022 -0.05444162 0.033080716
000390 2b 15 22 3d 10 88 8a 3d 65 17 85 3d 03 f6 83 bd
       0.03957097 0.06764233 0.06498603 -0.064434074
0003a0 66 6a e5 bc 29 df 30 3d 07 b8 a4 bd 35 61 a8 bd
       -0.028004836 0.043181572 -0.08042913 -0.08221666
0003b0 4d 01 52 3d d3 46 1a bc 4e f2 cf bc 89 03 9f bd
       0.05127077 -0.0094163 -0.025384095 -0.07764346
0003c0 1d 07 82 bd 1f 8c 81 bc 60 dc 22 bd 8c cd 27 3d
       -0.06349013 -0.015813885 -0.039760947 0.04096751
0003d0 8f b6 6c 3c 62 c5 82 3c 40 60 d5 bc 6d b1 21 bd
       0.014447822 0.01596326 -0.026046872 -0.039475847
0003e0 0d 70 10 bd c9 b3 c6 3c 6d 55 d8 bc 67 d0 0e bd
       -0.03526311 0.02425565 -0.026407922 -0.034866717
0003f0 8e 5c 8f bd 96 6c d7 3c b5 6b aa 3d 4c 99 6e bd
       -0.07000075 0.026296895 0.08321325 -0.058251664

attn.0.bias f4 [64]
000000 61 ae db bc 7b e2 46 bd ee f2 8e ba 9f 88 3b bd
       -0.026816549 -0.048555832 -0.0010906139 -0.04578459
000010 04 9a 95 3d 49 00 63 3d 1c be 60 3d 4d 7d 57 bd
       0.07304767 0.055420194 0.054868802 -0.05260973
000020 ef 3b 80 bd 5e da 02 bd c3 af 67 3d 40 40 e2 3c
       -0.062614314 -0.031946532 0.056564104 0.027618527
000030 7a 52 69 bd d7 9f 08 bd 19 45 7d 3d dd 1e 95 b9
       -0.05696342 -0.03335556 0.061833475 -0.0002844249
000040 14 4d 07 bd 76 9e b4 3a 60 96 71 3c 6a ff 56 3d
       -0.03303249 0.0013780135 0.014745325 0.052489676
000050 9f 97 50 3d f2 f3 9a 3d fb 87 a1 3c 2f d1 61 3d
       0.050925847 0.0756606 0.01971816 0.055131134
000060 b5 68 72 3c 4f 53 a8 bd 6e 3e 2a 3c 88 d7 39 bd
       0.014795472 -0.08219015 0.010390861 -0.045371562
000070 af 9e 54 3d a3 d8 a0 3c 15 cc aa bd 21 93 18 bd
       0.051909145 0.01963455 -0.08339707 -0.037249688
000080 09 fd 1a bd 98 71 92 3b 50 9c 89 bd 6f 21 a5 3d
       -0.03783897 0.004469108 -0.06719267 0.080630176
000090 9c cc f8 bb 32 2f 56 3d 43 7d 91 3d 9a 85 2c 3d
       -0.0075927507 0.052291103 0.0710397 0.0421196
0000a0 9e 61 30 bd e3 60 33 3d 9f ca 93 3d 86 dd 11 3c
       -0.043061845 0.04379357 0.07216381 0.008902913
0000b0 27 b7 97 bd 03 8d 88 3c e0 2f 27 3d c1 66 47 3d
       -0.074079804 0.016668802 0.04081714 0.048681978
0000c0 32 92 a9 bd ea 60 ad bd 2b aa 24 3c e4 7e 36 3d
       -0.08279838 -0.084657505 0.010050337 0.044554606
0000d0 0f d6 08 3d 66 e6 af 3d c2 8e 8d bd f3 e7 2d 3c
       0.033407267 0.08588867 -0.069119945 0.010614383
0000e0 9c 57 99 3d 6f 60 59 bc ef 63 e4 bc 6b e3 9e bd
       0.07487413 -0.0132676205 -0.027879683 -0.0775822
0000f0 89 58 bb 3c c8 20 12 3d cc 6e 9b bd 4a db 09 bd
       0.022869365 0.035675794 -0.07589492 -0.033656396

attn.2.weight f4 [1, 64]
000000 93 1f 47 bd 1f 2d 98 3d 1c 20 e8 bd 70 52 d3 3d
       -0.048614096 0.07430481 -0.113342494 0.10318458
000010 2d b0 fe bc 1a 1d ab 3b 37 29 3f bd 82 e2 eb 3d
       -0.031089867 0.005221975 -0.046670165 0.11517812
000020 df 43 ad bd ec 48 ce bd e9 f7 c2 3d e3 47 e0 3d
       -0.08460211 -0.100725025 0.09519941 0.10951211
000030 75 9f 04 bc 04 b7 a6 3d 97 62 e2 bd 3c 6d db bc
       -0.008094658 0.08140376 -0.11053961 -0.026785485
000040 b0 ca c4 bd fa 0a 88 3d a9 ef d8 bb 4f 29 79 bd
       -0.09608972 0.066427186 -0.0066203666 -0.06083041
000050 ee 74 99 bd 9f 55 10 3b 06 27 bb bd 9e f1 bb bc
       -0.07493006 0.002202369 -0.091383025 -0.02294236
000060 a4 52 87 bd 94 41 a0 3d 84 3f 9a bd cf 57 de bd
       -0.06607559 0.07825008 -0.07531646 -0.10856592
000070 84 84 41 bd 00 22 e0 3d 02 ff d1 bd 9f e4 e2 bd
       -0.047245517 0.10943985 -0.10253717 -0.11078762
000080 07 cd 78 bd 36 ff 6c 3b c1 da 10 3d 76 11 bb bd
       -0.060742404 0.003616286 0.03536487 -0.0913419
000090 29 9f e3 bb 4f e5 5e 3d fd 65 02 bd cd e5 59 3d
       -0.0069464636 0.054417904 -0.031835545 0.05319767
0000a0 03 c6 2d bd b1 51 ee 3d c3 13 7b bd eb f7 43 bd
       -0.042425167 0.11636675 -0.061298143 -0.047843855
0000b0 ea ed c7 bd 9a 11 e8 3d bd fa 28 bd b1 f5 02 bd
       -0.097621754 0.11331482 -0.041254748 -0.03197259
0000c0 34 64 e3 bd 15 76 41 3d 2e 82 c5 3c f1 cc 11 bd
       -0.111030966 0.047231752 0.024109926 -0.035595838
0000d0 07 05 d1 bd ac 48 15 3c 8c bd dc bd 37 8e f4 3c
       -0.10206037 0.009111565 -0.10778341 0.02985297
0000e0 5c fe e2 bd df 28 97 3d 49 b5 75 3d 74 99 a6 3d
       -0.110836715 0.073808424 0.05998734 0.081347376
0000f0 b3 fe 52 bc 07 5e b6 3d 66 f9 b3 bd 49 d3 99 bd
       -0.012878108 0.08904653 -0.08787803 -0.075110026

head.0.weight f4 [256, 406]
000000 83 d3 2c 3d 7b 25 f7 3c f7 5b 01 bd d6 10 d4 3c
       0.0421939 0.03016924 -0.031581845 0.025886934
000010 26 86 1b bd 9e bd 2f bd 5b f3 d3 bb a1 38 25 3d
       -0.03796973 -0.042905442 -0.006468219 0.04033721
000020 45 a1 3f 3d f1 5f e2 3c 3c 00 36 bd c7 95 06 bd
       0.046784658 0.027633639 -0.044433817 -0.032857683
000030 21 e9 93 3c 96 63 d6 3c 23 78 46 3d 33 41 10 3c
       0.0180555 0.026170533 0.048454415 0.008804607
000040 2b b3 c5 3c 60 18 93 bc f4 d5 fd bc 69 19 03 bd
       0.024133286 -0.017955959 -0.03098581 -0.032006655
000050 46 51 04 bd f8 d4 40 bd e7 60 00 3d b5 7e 23 bd
       -0.03230407 -0.047078103 0.031342413 -0.03991576
000060 6e b8 e6 bc 64 b8 02 bd be 00 ef 3c f5 f5 3c 3d
       -0.028164115 -0.03191413 0.029175159 0.046133
000070 e4 95 71 3a a8 cb ac 3b 1c f9 3b 3c 55 66 49 3d
       0.0009215756 0.005273301 0.0114729665 0.049169857
000080 af fc d8 bb ec 1b 92 bc ac 2c 38 3d 44 cf ec bc
       -0.006621919 -0.01783558 0.044964477 -0.028907426
000090 5b 7b 0e 3d 52 4b b4 3b a4 7b c1 bc ab 49 29 3d
       0.03478561 0.005502143 -0.023618527 0.04133002
0000a0 6d f2 db bc 75 82 8d 3c d4 d6 b8 3c 04 6c cd 3c
       -0.026848996 0.01727412 0.022563376 0.02507592
0000b0 ee ff be bc c6 f8 86 bb aa 4b f0 bc df e1 32 3c
       -0.023315396 -0.0041190116 -0.029332954 0.01091811
0000c0 4e 43 22 bd cb 78 28 3d b0 ac 28 3c 61 af b7 bc
       -0.039614968 0.041130822 0.010295078 -0.022422494
0000d0 f7 e3 1c 3c df 1c 19 bd 7c f8 e0 3a 48 98 aa 3c
       0.009575835 -0.03738105 0.0017163898 0.020824566
0000e0 38 1a 3b 3d 45 d7 b3 39 61 9e cc 3c 38 c0 c3 bc
       0.0456793 0.0003430193 0.024977865 -0.023895368
0000f0 17 08 8a bc 93 65 b8 bc fb 12 90 bc bb 14 f8 3c
       -0.01684956 -0.022509372 -0.017587176 0.030283323
000100 f9 b0 ed bc b2 71 48 bd 9a 60 39 bc 11 ab 97 bc
       -0.029015051 -0.048936553 -0.0113145355 -0.018514188
000110 11 13 43 bd 9f aa 0d 3d 86 5d 98 bc 53 ea f1 3c
       -0.047625605 0.034586545 -0.018599283 0.02953068
000120 93 f1 1f bd 4d 4c 5e 3c 2e 81 bf bc 31 b7 8b bc
       -0.039048743 0.013567996 -0.023377027 -0.017055126
000130 c1 d1 d2 bc 1e cb fc bc 62 38 a5 3c 53 0f 7f 3b
       -0.025734784 -0.030858573 0.020168487 0.0038919046
000140 45 b9 33 bd 12 81 46 3d db 2e 16 3d 3b 6c ca 3c
       -0.04387786 0.048462935 0.03666578 0.024709811
000150 6d 91 28 bd ad 04 1e bd 36 21 c2 3c 4a 71 20 bd
       -0.041154314 -0.038578678 0.023697477 -0.03917054
000160 db 2e 07 bd 71 9a fa bc df 19 c1 3c a4 5c 6d 3a
       -0.03300367 -0.030591222 0.023571907 0.0009054637
000170 99 da 40 bd 00 b4 8d bc a6 8e 23 bd 8c 86 7a 3c
       -0.04708347 -0.017297745 -0.039930962 0.015290868
000180 e7 db 0d ba 90 cb 95 bc bb c7 e4 bc 9a 5a 81 3c
       -0.0005411491 -0.018285543 -0.02792727 0.015790273
000190 0e 91 2f bd f3 18 8c 3c c4 3e 94 3c d0 b9 29 bd
       -0.042862944 0.01710174 0.018096335 -0.04143697
0001a0 f6 b7 97 bc c0 de 0b bc 9c af b9 3b 71 24 74 3b
       -0.018520337 -0.008536994 0.005666686 0.0037253166
0001b0 80 b3 8f 39 2d 34 6e bc 3c 8e 2a bd 2a 68 93 3c
       0.00027408823 -0.014538807 -0.04163955 0.017994005
0001c0 e7 cb b4 3b ca d4 28 bd fa d8 fd 3c 55 71 69 3c
       0.005517471 -0.041218556 0.030987252 0.014248212
0001d0 d4 4a 06 bd e8 a9 6d bc c3 79 89 bc 45 20 8b 3c
       -0.032786205 -0.014505841 -0.016781693 0.01698316
0001e0 d8 87 2b 3c 3c c0 df bc 85 a5 26 bd 23 10 2e 3d
       0.010469399 -0.027313344 -0.040685195 0.042495858
0001f0 57 b4 1a bd 05 dc 17 3d 90 27 ee bc 49 01 24 3d
       -0.03776964 0.03707506 -0.0290716 0.040040288
000200 84 f8 1b bc 55 a0 b0 bb 0a 6d ba 3c 6b a6 4b 3d
       -0.0095197 -0.005390207 0.022757072 0.049719255
000210 a0 c5 22 3c 3f 3a 01 3d 41 34 4d 3b d9 d1 2a 3d
       0.009934813 0.03154969 0.0031311663 0.041704033
000220 47 83 21 3c 13 9e 2f 3d bc b1 3f bd c5 02 e7 3c
       0.009857959 0.04287536 -0.04680036 0.028199563
000230 39 dc 9e bc 07 d3 9d 3c 84 0a 25 3c a6 55 91 ba
       -0.01939212 0.019265665 0.010073308 -0.0011088147
000240 3c 06 d5 3c 19 2c f0 bc 86 df 2a 3d 03 b6 73 3c
       0.02600395 -0.029317902 0.041717075 0.014874938
000250 ae 75 d0 3c c3 0f 3a 3d 62 3b 94 3c c1 0b 3c 3d
       0.025446739 0.045425188 0.018094722 0.045909647
000260 f9 04 40 3d 02 b9 78 bb f8 65 2f 3c 0f a0 48 3d
       0.046879742 -0.003795207 0.010705464 0.04898077
000270 ba df cc bb 9a 6b e2 bc b5 f9 9b bc f8 ca 9c bb
       -0.006252256 -0.027639199 -0.019039968 -0.004784938
000280 2c 27 36 bd 1b 88 3d bd 04 1d a1 bc 6c 88 f3 bc
       -0.04447095 -0.04627238 -0.019667156 -0.029728137
000290 eb 0b 1c 3d 75 e6 1e bd d5 b0 c1 ba c3 d1 42 bd
       0.038097303 -0.038794 -0.0014777431 -0.047563326
0002a0 8a 97 dc b9 e0 af 12 bd 42 21 fb 3c 51 d6 b1 bc
       -0.00042074575 -0.03581226 0.030655507 -0.02170864
0002b0 f6 88 9a 3c 02 fc 16 3d cd 54 27 3d 04 7e fa bc
       0.018864136 0.036861427 0.040852357 -0.030577667
0002c0 c6 d5 a6 bb 1c 74 74 bc 21 ad 1d bd 11 a7 ce 3c
       -0.0050914017 -0.014920261 -0.038495187 0.025226148
0002d0 b2 84 91 3c 24 3e 3d bd 0f a3 e2 3b de db cd 3c
       0.01776347 -0.04620184 0.0069164108 0.025129255
0002e0 18 f6 a1 bc 7b d9 2e 3d 3f bf 42 bc 2b 19 70 bc
       -0.019770667 0.042687874 -0.011886417 -0.014654438
0002f0 72 f7 c5 3c 6e ca f9 3c 62 fa 42 3d 51 e6 a4 3c
       0.024165843 0.030492034 0.047602065 0.020129355
000300 00 b7 c5 3c f5 02 cc bc a7 53 07 bd 08 77 42 bd
       0.024135113 -0.024903754 -0.03303876 -0.0474768
000310 59 cc 76 3c 1a df 9c bb de b3 d7 3c 30 22 1c 3d
       0.015063369 -0.004787338 0.026330885 0.03811854
000320 18 b4 cc bb e3 4c 91 bc a3 77 41 3d cc 67 3e bc
       -0.006247055 -0.017736858 0.047233235 -0.011621427
000330 ea 0b df bc bd 0b d4 bb eb f2 06 bd 82 07 9f bb
       -0.02722736 -0.006471126 -0.03294651 -0.00485319
000340 b8 69 fb ba b6 e5 d9 bb d7 50 69 bc ec 8d 6a bb
       -0.0019181287 -0.006649698 -0.014240465 -0.0035790158
000350 a1 1a 57 bc b1 1a 33 3c a6 d7 38 bd 39 84 21 3d
       -0.013128907 0.010931657 -0.045127533 0.039432738
000360 f9 7a b8 bc 89 d5 3f 3d 65 1c 4f 3c e8 d4 37 bd
       -0.022519575 0.046834502 0.012641047 -0.044880778
000370 a5 75 3a 3d 03 80 ec bc 0d 4d 8a 3b d8 c9 45 bd
       0.04552235 -0.028869634 0.004220611 -0.048288196
000380 7a f7 14 3d 67 eb 28 bd af 6a 17 bb e5 7f 5c bc
       0.036368825 -0.041240122 -0.002310436 -0.013458227
000390 84 4b b5 bc d5 d4 e2 bc b5 8f 98 bc fd 69 cc bb
       -0.022130735 -0.027689377 -0.018623212 -0.0062382207
0003a0 d4 22 37 3d 24 e8 12 bd 5d 85 12 bd ac da 1e 3d
       0.04471095 -0.035865918 -0.035771716 0.03878276
0003b0 6d 32 2b 3d 6f 90 1c bd 5e b2 10 bd bf 2e a5 bc
       0.041796137 -0.03822368 -0.035326354 -0.020163892
0003c0 22 a0 fd 3c ba db 38 3d 2f f1 29 bd f5 cf 3c 3d
       0.030960146 0.045131423 -0.041489776 0.04609676
0003d0 02 b7 7d 3c dc 81 4b bd b7 ac 78 3c 5a 47 7d bc
       0.015485527 -0.04968439 0.015177897 -0.015458906
0003e0 16 0d d0 3c 5d e2 43 bd 4f 1e c9 bc d7 30 42 3d
       0.025396865 -0.0478233 -0.024550585 0.04740986
0003f0 36 1e ab bc d9 bd c6 bc c5 da 6a ba c6 48 27 bd
       -0.02088843 -0.024260448 -0.0008958991 -0.040840887
