api/model/wot_model_map.pth (torch, 526196 bytes, 13 tensors)

map_emb.weight f4 [41, 10]
00000000: f5d9 4ec0 417e c3be b035 87bf c467 8b3f
00000010: 8b66 d1be 75ed 22bf 9ce1 0a3f 612a ed3e
00000020: 2a80 913f f2c8 babb 1f53 fbbe b04c 14c0
00000030: 03fe a93e c48a e3be f418 6abe 36eb ca3f
00000040: e91b 3e3f 6322 1840 6a86 2f40 8d29 9f3f
00000050: e4b6 c03e bbfc b6bd 948c 01bf 9ddb 4c3f
00000060: a675 54bf 84f1 01bf ffc0 bc3e 2e43 db3d
00000070: 84f8 9cbf 3a94 b03f 1b24 9e3e e18d 7b3f
00000080: d1d7 a5be 7282 e93e 1f88 3bbe 4bef 033f
00000090: d67a bb3f 4f7e 2ac0 7123 e1bf e4b7 0140
000000a0: 30ae b03f b1a7 e5bd a969 3e3d 6085 1140
000000b0: 1260 9e3e 5079 d5bf 2d8c bebe f5c7 b5be
000000c0: 07c0 473f d308 74bf 15a6 f03c 527e 963f
000000d0: 0416 8f3e 0de7 dbbe b6ec b9be 707a 5a3f
000000e0: 787b 153d 4315 513f eb04 773f 26d2 433e
000000f0: 6917 f3bf 66ec 81bf 4f48 2fba 2584 a73f
00000100: 93d3 0a3e 933c 7bbf c7d2 123f dfc9 ebbf
00000110: dbaf 803e 953f dfbd b310 4ebf 672c a23e
00000120: dc01 c23f bdec 0dbf 41a4 20be 5198 96bf
00000130: 8132 bf3f 1d51 a9bf 08bb 623e 70cf 33bf
00000140: 8d2a 333f 62e6 d2be 8e80 913f b31d a43e
00000150: 0576 3a3e 26a4 853f 4dd8 f7bf bf8c c03f
00000160: 7262 81bf 51ca b4be edd7 93be fc51 e6bf
00000170: ae2f 9bbe d107 373f ee13 f83e 86ac 0dbf
00000180: 831c adbe fbc2 1fbf c13c 273d ef33 ebbf
00000190: fed9 ac3f e9f8 aabf 8c41 40be eed2 53bf
000001a0: 0e8e bebe 0138 763f c26f a7bf 8321 80be
000001b0: 83ac ce3f 6b29 d43e ebb3 7b3e 6cae fb3f
000001c0: e2d3 2fbe 70d5 c53e b622 f93e 76ba 3340
000001d0: 82ae 983f 4b5a 4c3e 1fc0 0540 541d 8bbf
000001e0: b935 a0be 4cda cebf d7fd 1d3e 7361 52bf
000001f0: 5e52 0dc0 3b84 a93f 24e2 b8bd e1d8 b7be
00000200: dac2 f7bf 61da d53d 139a e0bd fc83 883f
00000210: c4b2 8ebf 6e69 a0bf d011 8b3f 7a2f 073f
00000220: 4e2b 3a3e a039 8ebf 9759 7c3f ef29 613f
00000230: 712d d1bf 6aab 8cbf 1c5f 493f c84c 313f
00000240: a0ec a9be ec02 883e 90fa 9d3f f099 87bf
00000250: c715 e13e 99ea 593e 45d4 adbf 3dca d0bf
00000260: 3837 e73e 5874 113f 10b6 ad3d f4e0 afbf
00000270: 5119 3cbf cf49 4abf 0320 2b3f a83b 353e
00000280: c507 7a3f a813 b8bd fdb2 6f3f 423b 2fbe
00000290: 3f31 b2bf fadc da3d e637 d43d 0d0e 543f
000002a0: 354a 6d3f 65af 07c0 54c4 9ebf 94c3 943d
000002b0: e52d c63f 4122 54be 0d72 a3be cdf1 08bf
000002c0: 9b09 eb3e 7369 353f 8e5e 513e 79e0 f1bf
000002d0: 8dd7 cc3f 48d8 15be 064e 643f 57c5 64bf
000002e0: 1c0b 8b3f 6b6c e03f 61ce 52bf 8098 e0bd
000002f0: 3c1e a7bf 104e 363f 2d60 0d3e b14f b23f
00000300: 5096 8fbe 346f 843f 6f79 053f 0633 043f
00000310: 6244 0340 be71 debd 7f0f 4f3f 86bd afbf
00000320: 0276 babf b48f fdbe 5d08 d6bd a9fd f03e
00000330: 92d9 b3bf 8bd7 913f eb33 b6be d7b9 653f
00000340: a330 163f dff8 0c3f 09f9 c5bf 659e 873f
00000350: 6059 453f a083 603d 8993 b0bf f78a a9bf
00000360: da58 a8bf 624e 103f a3d7 efbf c805 0c40
00000370: c885 7d3f 7c74 20c0 9d9d cc3e 36af af3e
00000380: fbf6 6cbe 1f33 e0be deaf 04bf 8be2 c63e
00000390: b5e9 90be afe8 873e 0db9 2ebe e799 0f40
000003a0: 0d67 8bbf 3672 523d 32c8 1e3f 616b 383f
000003b0: 06fe fc3e 37f3 a53f b3b4 263f 3f8e 53bf
000003c0: 032c 32bf f36f 61bf 3503 a13f da05 66bf
000003d0: 164a b3be f65c a6be 3671 f33d e5ed e43f
000003e0: 423a 01be d241 b5bf 9173 563f 0584 7cbe
000003f0: 747f 6a3e 9458 44be c191 0740 6c8f 973f
-3.232053 -0.38182262 -1.0563259 1.0891042 -0.40898547 -0.6364358 0.542505 0.46321395
1.1367238 -0.005700224 -0.49086854 -2.3171806 0.33201608 -0.44441807 -0.22861081 1.5853031
0.7426134 2.3770988 2.742579 1.2434555 0.37639534 -0.08934923 -0.5060513 0.80022603
-0.8299202 -0.5075915 0.36865994 0.10706173 -1.2263341 1.3795235 0.3088692 0.98263365
-0.32391217 0.45607334 -0.18313645 0.5153701 1.4646862 -2.6639593 -1.7588941 2.0268488
1.3803158 -0.11213625 0.046487484 2.2737656 0.3093267 -1.6677647 -0.3721632 -0.35504118
0.78027385 -0.95325965 0.02937607 1.17573 0.27946484 -0.42949715 -0.3631341 0.85343075
0.036494702 0.8167307 0.9649188 0.19123134 -1.8991519 -1.0150268 -0.0006686495 1.3087202
0.13557272 -0.98139304 0.5735287 -1.8420981 0.25134167 -0.10900799 -0.8049423 0.316745
1.5156817 -0.5543936 -0.15687658 -1.1765233 1.4937288 -1.3227879 0.2214166 -0.702384
0.699868 -0.41191393 1.1367357 0.3205391 0.18209083 1.0440719 -1.9362885 1.5042952
-1.0108168 -0.35310605 -0.28875676 -1.799377 -0.30309814 0.714963 0.48452705 -0.55341375
-0.33810815 -0.6240689 0.040829424 -1.8375224 1.3504026 -1.3357211 -0.18775004 -0.8274373
-0.37217754 0.96179205 -1.3080981 -0.25025567 1.6146396 0.4143785 0.24580352 1.9662604
-0.1717067 0.38639402 0.48659295 2.8082557 1.1928256 0.19956319 2.0898511 -1.0868325
-0.31290987 -1.6160369 0.15428863 -0.82179946 -2.2081523 1.3243479 -0.09027508 -0.35907653
-1.9356339 0.10442043 -0.10966887 1.0665278 -1.1148305 -1.2532175 1.0864811 0.5280682
0.18180582 -1.1111336 0.98574203 0.8795461 -1.6341993 -1.0989811 0.7866075 0.69257784
-0.33188343 0.2656473 1.2342091 -1.0593853 0.43961927 0.21280898 -1.3580405 -1.6311718
0.45159316 0.5681815 0.08481991 -1.3740525 -0.7347613 -0.7901887 0.6684572 0.17698538
0.97668105 -0.08988124 0.9363249 -0.17112449 -1.3921279 0.10686679 0.10362224 0.8283394
0.92691356 -2.1200802 -1.2403665 0.07263866 1.5482756 -0.20716192 -0.3192295 -0.5349396
0.45905766 0.7086403 0.20446226 -1.8896629 1.6003281 -0.14633286 0.89181554 -0.89363617
1.0862765 1.7533087 -0.8234616 -0.10966587 -1.3056102 0.71212864 0.1380622 1.393057
-0.28044367 1.0346437 0.5213842 0.51640356 2.0510488 -0.10861538 0.8088302 -1.3729713
-1.4567263 -0.495237 -0.10450814 0.47068527 -1.4050772 1.1393903 -0.35586485 0.89736694
0.58667964 0.5506725 -1.5466624 1.0595213 0.770895 0.054813027 -1.3795024 -1.3245534
-1.3152115 0.563696 -1.8737682 2.1878529 0.9903226 -2.5071096 0.39964 0.34313363
-0.2314109 -0.43789002 -0.5183085 0.38844714 -0.28303304 0.2654471 -0.17062779 2.2437685
-1.0890824 0.05137845 0.62024224 0.7203885 0.49412555 1.2964848 0.65119475 -0.82638925
-0.69598407 -0.88061446 1.2579104 -0.8985268 -0.3501746 -0.324928 0.11886828 1.78851
-0.1261988 -1.4160712 0.8377009 -0.24659736 0.22900182 -0.19174415 2.118271 1.1840644

player_encoder.0.weight f4 [128, 13]
00000000: 7e2e f9bd babe 2cbe c735 033e 5163 b8bd
00000010: f2cd 04be 1b7d e73d f738 543e 952f 27bc
00000020: eca0 803d e763 b93c ece5 e0bd 8d6e 4bbd
00000030: 72b3 fdbd 1b14 8cbe ad58 7fbe cf65 b7bb
00000040: 0914 813e 4abb 093e acee 1dbe 6354 87be
00000050: 7bd5 3abd 5904 4dbc 0191 23be 6702 cdbd
00000060: 1d3a 663e 78ec 1f3e 02a1 093e 0abe 853e
00000070: 0b4a 18be 7a72 7f3e 50f2 6b3e f629 883e
00000080: 0245 353e feca 0bbe 26cb 5cbe 5804 27be
00000090: a3f3 d5bd d219 b13d 6e2e f43d 5bcf 273e
000000a0: f476 c4bd c048 1d3e 8d9f 623d 836f 263e
000000b0: b86e c13d 3a21 94bd ecc5 ee3d e6ba 343d
000000c0: 350c 69be bb8f a2bd d523 0c3e 70b6 7cbe
000000d0: da2c dbbd b0ba 413d 4b3d 8a3e dc33 4abe
000000e0: 5993 8ebe 4c52 873e ef08 acbd 16bb ecbd
000000f0: dd9b b03d 09ba 623e a3e5 8fbc 05f1 72be
00000100: 5f95 7ebe 9287 403e 0030 983c 2cd9 373e
00000110: a742 03be 33c0 0bbe 48c5 d1ba d5d9 753d
00000120: ffb2 0f3e 2179 6e3e d6b9 22be 8bfd 633e
00000130: 71d9 14bb ab3b 3d3e 89c9 33be 1188 89be
00000140: a656 53be e8b7 e9b9 eede 70be 110a de3c
00000150: 0c1d 4cbe 9730 353e 0499 46be 9125 3e3d
00000160: 11e8 c4bd 6d9d 503e 7da1 01be 901e 863e
00000170: 5546 363e 278c 223d 1382 c23c dc0a 843e
00000180: 99e5 853d 56ef ea3d c61e 56bd 5a50 143e
00000190: e067 0bbe 1a52 7e3d 6640 7dbd b2c5 9c3d
000001a0: 97eb 073d 8312 13be 5a25 50be 8c98 b33d
000001b0: 10e2 5fbe fdc7 2b3e 0c58 253e 2fa2 89be
000001c0: ccf0 d0bd a677 423e 2ae2 3c3e ea28 c33d
000001d0: 0bd3 333e efdb aebd 253a 1e3e b8af 9bbc
000001e0: 117e 2dbe 30f9 11be f84a fabd 82a1 65ba
000001f0: 7ead 21bd d85f 12be f57a 453d 17b9 2bbe
00000200: 1efe 103e 4773 e03d 9973 64be edb3 5e3c
00000210: 766d 5fbc fdc1 5b3d fc43 f13d db5e 0fbd
00000220: dc9e eb3d 7841 323e e5db 5d3e 56aa 18bb
00000230: 3b90 f7bd f08a cc3d 8923 7d3e 33b6 423d
00000240: b080 453e a8c3 82be 408d 513e d62c fd3d
00000250: b7ff 69bc 5fad 883d 2a3b 4fbe adae 3abe
00000260: 3845 33be 7552 093e e609 02bd 4497 7bbe
00000270: 09d9 10bd 4987 bdbd 0cca 34be 4cdd 5e3e
00000280: 2aa0 203e e6e5 713e e54f 9dbd b45c fbbc
00000290: 210a d23d 1655 373e 4451 113e afd6 e9bd
000002a0: 5a93 b0bc 6d5e f83d dc1a 373e e864 be3d
000002b0: b665 1dbd 57c1 61bd 64c4 4ebe e183 05be
000002c0: 10b1 75be 243d 373e 8cdf 45be 3d83 86be
000002d0: 96ce cfbd bfd1 4abe ef8e 6c3e 4933 52be
000002e0: 4914 8abe ee1c 643e ea8a 15be c124 85bb
000002f0: c9bd d03c fb02 273e 3215 8abe ffc0 053c
00000300: e8c6 85be 002c 63be 5453 40bc 0fd8 49be
00000310: de49 8a3e 7d08 143e 49fe 8cbe 9696 bf3d
00000320: 0843 2cbd e6df f83d e8dc 88bd abc5 703e
00000330: f251 583e 9cc9 78be 89d8 413d 47f9 c2bd
00000340: 07cf 51bd 758d 183e f572 853e 3497 09bc
00000350: debc bbbd 9c13 28be 35c3 0d3e a397 443e
00000360: e9cb 02be 5aa2 463e 379d 58bd ff43 1dbe
00000370: 390a 153c 0802 46be 10aa 0dbe 1e91 883c
00000380: a10a 2e3e 953b 41bc 5bc9 3cbe 3a0e 0e3e
00000390: e275 aa3d 2d01 5c3e 9ba4 5ebe 7bb4 333d
000003a0: 34e2 2cbe 1605 593c eb84 363e ad2b 26be
000003b0: c0ae b0bd 26b5 e73b 4567 2bbc 4651 a6bd
000003c0: 689c cd3d 5c7b 553d 6a1d 693c a885 1dbe
000003d0: 6000 8e3e 1176 84be a1a8 53be cdac 523e
000003e0: 9686 863d 38ca 27be 846b 913c 5f09 23be
000003f0: 1177 89be f3d2 de3d b967 633e cb55 03be
-0.12167071 -0.16869631 0.12813483 -0.09003318 -0.12969187 0.11303159 0.20724855 -0.0102042155
0.062806934 0.022630645 -0.10981354 -0.049665976 -0.12387742 -0.2735909 -0.24936171 -0.0055968533
0.25210598 0.13450351 -0.15423077 -0.2643157 -0.045613747 -0.012513244 -0.15973283 -0.10010224
0.22483106 0.1561755 0.13440326 0.2612155 -0.14871995 0.24946013 0.23041654 0.26594514
0.17702106 -0.13651654 -0.2156187 -0.16310251 -0.10446861 0.08647503 0.11922918 0.16387694
-0.09593001 0.15359783 0.05532794 0.16253476 0.09444946 -0.072329 0.11658844 0.044123553
-0.22758563 -0.07937571 0.13685544 -0.2467897 -0.10701914 0.04729718 0.26999888 -0.19746345
-0.27846792 0.26429975 -0.084001414 -0.11559121 0.086234786 0.2214128 -0.017565554 -0.23724754
-0.24861668 0.18801716 0.018577576 0.17953938 -0.12818395 -0.13647537 -0.0016004229 0.060022194
0.14033125 0.23288395 -0.15891203 0.22264688 -0.0022712613 0.18479793 -0.17557348 -0.26861623
-0.20638523 -0.00044578244 -0.23522541 0.02710441 -0.19932956 0.17694317 -0.19394308 0.046422545
-0.09614576 0.20372553 -0.12659259 0.26195192 0.17800267 0.03968444 0.023743665 0.25789535
0.06537933 0.11471431 -0.05227544 0.14483777 -0.13613844 0.062090017 -0.061828993 0.07654895
0.03318366 -0.1436253 -0.20326748 0.087693304 -0.2186358 0.16775508 0.16146868 -0.2688155
-0.10202178 0.18990955 0.1844565 0.09529288 0.17560975 -0.08538043 0.15451868 -0.019004688
-0.16942622 -0.14255214 -0.122213304 -0.0008759723 -0.039472096 -0.14294374 0.048212964 -0.16769825
0.14159438 0.109594874 -0.22309722 0.013592702 -0.013636937 0.0536518 0.11780545 -0.03500257
0.115049094 0.17407787 0.21665914 -0.0023294888 -0.12088057 0.09987438 0.24720587 0.04753704
0.19287372 -0.255399 0.20464039 0.123620674 -0.014282159 0.06673693 -0.20237413 -0.18230696
-0.17506874 0.13410361 -0.03174772 -0.24569422 -0.03536323 -0.09254319 -0.176552 0.21764106
0.15686098 0.23622856 -0.07681254 -0.030683853 0.10255838 0.17903551 0.14191157 -0.11417901
-0.021554638 0.12127385 0.1788134 0.0929659 -0.038427077 -0.055116024 -0.20192105 -0.13038589
-0.23993325 0.17894417 -0.19323558 -0.26272002 -0.10146825 -0.19806574 0.231014 -0.20527376
-0.269686 0.22276661 -0.14603773 -0.0040632193 0.025481122 0.1630973 -0.26969296 0.00816369
-0.26128316 -0.22184753 -0.011738617 -0.19711326 0.2700948 0.14456363 -0.27537754 0.09354894
-0.042056113 0.1215208 -0.066827595 0.23512904 0.2112501 -0.24295658 0.047325645 -0.09520202
-0.051222827 0.14897712 0.26064268 -0.008397866 -0.09166883 -0.1641373 0.13843997 0.1919847
-0.12773098 0.1939787 -0.052884307 -0.1535797 0.009096676 -0.19336712 -0.13834405 0.01667076
0.16996242 -0.011793991 -0.18436186 0.13872615 0.083232656 0.21484824 -0.2174248 0.04387329
-0.16883165 0.0132458415 0.17824142 -0.16227598 -0.08627081 0.007071155 -0.010461633 -0.081209704
0.10039598 0.052119598 0.014228204 -0.15383017 0.2773466 -0.25871328 -0.20669796 0.20573731
0.06568639 -0.16385734 0.017751463 -0.15921544 -0.26848653 0.10880079 0.22207536 -0.12825696

player_encoder.0.bias f4 [128]
00000000: cc84 27bb 5c6f 743e b06c 4eba 8654 37be
00000010: 7532 babc 6301 b0bd 5eaf fa3d 1095 07be
00000020: 7caa 483e bb58 b43d 75f1 79be 9d53 47bd
00000030: 21f0 003e d96a e13d bf13 2c3e fcf0 b0bd
00000040: 45ca 90bd 180c bd3d 56d5 803e a2c2 fe3d
00000050: 3197 223e 7237 4a3d ca25 233e ccbe 583e
00000060: 6397 7bbd bba1 463e 665d dfbd 10b6 6b3e
00000070: 53c3 273c a94f 873e 1db6 20be ff09 22be
00000080: 34e4 1c3e 4405 333e ea17 9cbc d480 1b3e
00000090: 7108 3cbe 8d85 963d 5bdb f53d 8385 803e
000000a0: 7045 67be 8cc2 d93d 6f41 9e3d b9be 0a3e
000000b0: 4953 50be 1067 3ebe 3acb 103e 9f12 d03d
000000c0: cc0a b7bd 54aa 633e 0f08 fd3d 6701 403e
000000d0: 5497 c83d 5288 82be 9530 85bd 7ca5 2bbe
000000e0: af22 05be 4a67 1c3e 054b d83d 616b 5f3e
000000f0: dd26 9bbd 0cd3 37be e249 e7bc ed2f 7b3e
00000100: 27f1 64be 1381 0b3e cd63 8b3d 708b debc
00000110: 5b33 6cbe 8cde 3cbd 29db 29bd f06f d2bc
00000120: 008a 00be 86e7 cb3d 19bf 4ebe 26f4 703c
00000130: b5db 8abe 1d86 313e 6a51 873e a2bf e2bc
00000140: 8b15 38bc 5008 d93d dc08 7cbd f1b6 283c
00000150: cb67 8d3e ccd6 b2bc a13a ebbd e440 a0bd
00000160: 830a f03b 22f7 583e 44e7 603e 2ca5 423d
00000170: 5d3e 1c3e ee4b 2bbe 7222 733d 8f65 97bd
00000180: 5a90 4ebd 6377 cebc 9c0e 7c3e ee27 a7bd
00000190: 7376 873e 086e 833e 1aad d03d 40ac 7fbc
000001a0: b087 6b3e b797 893d f34b 403e bd37 69be
000001b0: da03 8b3e b6af 993d abf9 1f3e f5a3 633e
000001c0: e413 3a3d 9429 3c3e a9a9 ca3d 1f04 8a3e
000001d0: 3f35 423e c6d7 233e 76c6 573e 1547 9dba
000001e0: c359 35be a075 b13d 69f0 27be fd87 07be
000001f0: 9d33 91bd 8968 2dbe a8bc 173e ac4a 453e
-0.002556133 0.23870605 -0.0007874472 -0.17903337 -0.022729138 -0.085940145 0.1224048 -0.13240457
0.19596285 0.088059865 -0.24408515 -0.048663724 0.12591602 0.11006708 0.16804408 -0.08639714
-0.0706983 0.09230822 0.25162762 0.12439467 0.15877987 0.049369283 0.15932384 0.21166533
-0.06142367 0.19397633 -0.10906486 0.2301867 0.01023944 0.26427963 -0.1569447 -0.15824126
0.15321428 0.17482477 -0.019054372 0.15185863 -0.18362595 0.073496915 0.12004729 0.2510186
-0.22585082 0.1063281 0.07727324 0.13549317 -0.20344271 -0.18594003 0.14140025 0.10159802
-0.08937606 0.22232944 0.12355053 0.18750535 0.097944885 -0.2549463 -0.06503407 -0.16762346
-0.13001512 0.15273777 0.10561184 0.21818306 -0.07575772 -0.17951602 -0.028233472 0.24530001
-0.22357617 0.13623457 0.06806145 -0.027166098 -0.23066466 -0.046110675 -0.041468773 -0.025688142
-0.12552643 0.09956269 -0.20190085 0.014706647 -0.27120748 0.17336316 0.26429302 -0.027679268
-0.011235605 0.105972886 -0.061531886 0.010297523 0.2761825 -0.021830939 -0.11485792 -0.07824877
0.007325472 0.21188024 0.21963221 0.0475208 0.15258165 -0.16728184 0.05935902 -0.07392418
-0.050430633 -0.025203412 0.24614948 -0.08161913 0.26457557 0.25669885 0.101892665 -0.015605032
0.2300098 0.067183904 0.18778972 -0.22775169 0.27151376 0.07504217 0.15622585 0.22230513
0.045429125 0.18375236 0.09895641 0.2695627 0.18965624 0.1600028 0.210718 -0.0011999334
-0.17710023 0.08665013 -0.16400303 -0.13235469 -0.070899226 -0.16934408 0.1481806 0.19266766

player_encoder.1.weight f4 [128]
00000000: 1a60 803f d561 803f 943c 803f 3f58 803f
00000010: 229a 803f 80b3 803f 323d 803f 4e57 803f
00000020: 9369 803f b051 7f3f 36b9 7f3f 6593 7f3f
00000030: 8f62 803f 98ea 7e3f 4598 7f3f 972e 803f
00000040: 46bb 803f 82b0 7f3f 32ff 7e3f 531c 803f
00000050: 4227 7f3f 84a8 803f eaa8 803f 879f 7f3f
00000060: a677 7f3f 2356 803f 4b92 803f 2a75 7f3f
00000070: 9ae2 7e3f 2e9a 803f 8631 803f 8567 803f
00000080: 57da 7f3f 72b3 803f b6af 7e3f 7dad 7f3f
00000090: 4c7f 7f3f 0aa3 803f 5712 803f 5f53 803f
000000a0: 52cb 7e3f 5d3b 7f3f 3290 7f3f dfbe 7f3f
000000b0: b506 7f3f 359c 803f c267 803f 55bd 7e3f
000000c0: cc5d 803f b379 803f 8ad7 7f3f 544f 803f
000000d0: c172 7f3f 2910 7f3f 3fa8 7f3f fa95 7e3f
000000e0: 847e 803f d197 7f3f 752a 7f3f 214f 803f
000000f0: 0f91 803f a43f 803f d866 803f d917 803f
00000100: 397a 7f3f 1b14 803f 346c 803f 91bb 803f
00000110: be4e 803f 739d 803f 880f 7f3f da2e 7f3f
00000120: daec 7f3f 6b8a 7e3f 82b2 803f b58b 803f
00000130: 1b18 803f d459 803f 8161 803f 0b01 803f
00000140: f785 803f 4aa1 803f 7fac 803f c10b 803f
00000150: 951d 803f 9905 7f3f a2a5 803f 29c1 7f3f
00000160: 915b 803f 903f 7f3f a1b1 7e3f 4eb5 803f
00000170: f4c2 7f3f 0069 7f3f ae0b 803f 3eee 7f3f
00000180: 6543 803f bda0 803f 961f 7f3f a475 7f3f
00000190: 5349 7f3f 030e 803f 4058 803f 8e9e 803f
000001a0: e01d 7f3f 2bb3 803f 08c1 7f3f e843 803f
000001b0: 6299 803f 3ad6 7f3f ae68 7f3f 600b 803f
000001c0: e0b1 7e3f b164 7f3f b884 7f3f 65a4 803f
000001d0: dd31 803f 3ebf 803f 951c 7f3f a0d0 7e3f
000001e0: dc05 7f3f 5d9e 7f3f e264 803f 4b04 7f3f
000001f0: 4851 803f 9628 803f d1ba 7e3f 8f44 803f
1.0029328 1.0029856 1.0018487 1.002693 1.0047038 1.0054779 1.0018675 1.0026643
1.0032219 0.9973402 0.99891984 0.9983428 1.0030078 0.9957671 0.9984172 1.0014218
1.0057151 0.99878705 0.9960815 1.0008644 0.9966928 1.0051427 1.0051548 0.99852794
0.99791944 1.0026287 1.0044645 0.99788153 0.99564517 1.0047052 1.0015113 1.0031592
0.99942535 1.0054762 0.99486864 0.998741 0.99803615 1.0049756 1.0005597 1.0025443
0.9952899 0.99699956 0.998294 0.9990062 0.9961961 1.0047671 1.0031664 0.9950765
1.0028625 1.003714 0.9993826 1.0024209 0.99784476 0.99634033 0.998661 0.99447596
1.003861 0.9984103 0.9967416 1.0024148 1.0044268 1.0019422 1.0031385 1.0007278
0.9979587 1.0006136 1.0033021 1.0057241 1.002403 1.004805 0.99633074 0.99680865
0.9997078 0.9942996 1.0054476 1.0042635 1.0007356 1.0027413 1.0029756 1.0000318
1.0040883 1.0049222 1.0052642 1.0003587 1.0009028 0.99617916 1.0050547 0.99904114
1.0027944 0.99706364 0.9948979 1.005533 0.9990685 0.9976959 1.0003564 0.99972904
1.0020567 1.0049053 0.9965757 0.9978888 0.9972126 1.0004276 1.0026932 1.0048387
0.9965496 1.0054678 0.9990392 1.0020723 1.0046809 0.9993626 0.99769104 1.0003471
0.99490166 0.9976302 0.9981189 1.0050169 1.0015217 1.0058362 0.9965299 0.99537086
0.99618316 0.9985102 1.0030787 0.99615926 1.0024805 1.0012386 0.9950381 1.0020922

player_encoder.1.bias f4 [128]
00000000: bb1b 783b 1822 543b ec95 d93a 06e7 4d3b
00000010: 7a25 a23b 95f3 ab3b cd02 ad3b 5e39 4a3b
00000020: 4911 683b 741c 4ebb 5b05 71ba b1b2 d1b9
00000030: e423 733b 8bdd 82bb a94d 6eba dfdd a53a
00000040: 2080 b33b de87 4bbb 3f93 93bb 1d8b 0b3a
00000050: 0f07 07bb b84d a13b 54ff a43b 9c3d 883a
00000060: ad54 edba 2035 2f3b ec44 a93b e288 09bb
00000070: 5bca 8abb c43e 933b 0a44 6e3a 9bb2 1a3a
00000080: 599c 8a39 de0c 1d3b faf1 9abb 786e 7aba
00000090: e4f7 943a 1b5e af3b b8a9 753a fa94 db3a
000000a0: 24f1 92bb ddd2 f8ba 08f8 c339 a94e 823a
000000b0: 08fb 13bb 04bf a73b 04ef 483b 6072 afbb
000000c0: 20c4 b13a 2fae 803b 8904 7639 804a 43b9
000000d0: cb99 0ebb 6bf9 37bb ae25 92ba 6846 b0bb
000000e0: 36d3 a43b 8c7b 17bb 6cc0 15bb 4acc 923b
000000f0: 061b 903b 1a6c 0e3b 4879 783b 25c6 2d3b
00000100: 8d6f fcba a023 5a3b c8d9 473b fe16 b13b
00000110: 830c 903b ca0b ae3b 4c9e a0bb c0a0 97ba
00000120: 9194 abbb bf69 b3bb ac1f bd3b 4c25 8f3b
00000130: 6872 083a 16f8 1e3b 6dc8 3e3b b7d7 a7ba
00000140: c531 ad3b 765b a13b 5efe af3b 2bf8 8e35
00000150: 5bbd 693b 421c 34bb 9251 a23b 790d daba
00000160: 1659 e23a fc09 98bb a9b9 a6bb d270 ae3b
00000170: fbb1 e5ba 6cc5 41bb 413d 06bb 0a5d 13b9
00000180: 4a9e 80bb 8b78 a13b e2a7 aebb dd4b b2ba
00000190: 4d2d 4fbb ab15 c139 d4d2 663b 76a2 a23b
000001a0: cf0b a6bb df04 973b 2d97 edb9 267f 2d3b
000001b0: a27a 9f3b 5033 ea39 58ab 1dbb 0037 ebb9
000001c0: 85b7 bbba d42e 4ebb 16cf 41bb 2ba6 ab3b
000001d0: 88da de3a 1a75 ae3b 9686 dfba d55c 9ebb
000001e0: 6c59 52b9 f2e7 f6ba 7d0f 933b dbac 74bb
000001f0: b532 ce3a 7adb 7f3a 1cdd 86bb 8c59 893b
0.0037858326 0.0032368954 0.0016600466 0.0031418218 0.004948315 0.005247543 0.005279875 0.0030856947
0.0035410693 -0.0031450065 -0.00091942184 -0.00039996722 0.003710025 -0.003993695 -0.0009090552 0.0012654624
0.00547792 -0.0031056325 -0.004503637 0.00053231587 -0.0020603572 0.004922595 0.0050353203 0.0010394338
-0.00181069 0.0026734546 0.005165687 -0.002098613 -0.0042355484 0.004493566 0.0009089118 0.0005901248
0.000264379 0.0023963968 -0.004728553 -0.0009553204 0.0011365381 0.0053517944 0.00093712984 0.0016752772
-0.0044843126 -0.0018983741 0.00037378096 0.0009941655 -0.0022580046 0.0051192064 0.0030660043 -0.0053542107
0.0013562478 0.0039270143 0.00023462078 -0.00018624403 -0.0021759148 -0.0028072249 -0.0011150145 -0.005379487
0.005030061 -0.002311441 -0.0022850288 0.0044799196 0.0043977527 0.0021731914 0.0037914086 0.0026515808
-0.0019259319 0.0033285394 0.0030494798 0.005404352 0.0043960228 0.005311464 -0.004901683 -0.0011568293
-0.0052362164 -0.0054752524 0.005771598 0.00436846 0.0005205036 0.0024256757 0.0029111162 -0.0012805377
0.005285474 0.004924233 0.005370899 1.0652051e-06 0.0035665843 -0.0027482663 0.0049535716 -0.0016636095
0.0017268981 -0.004639862 -0.0050880504 0.005323508 -0.0017524356 -0.0029567135 -0.0020483288 -0.00014053672
-0.0039251195 0.0049277 -0.005330072 -0.0013602931 -0.0031612695 0.00036827973 0.0035220878 0.0049632145
-0.0050673257 0.004608735 -0.00045316797 0.0026473491 0.004866914 0.0004467019 -0.0024058428 -0.0004486367
-0.0014321661 -0.0031461017 -0.0029572896 0.0052383146 0.0017002383 0.005324018 -0.001705366 -0.004832844
-0.00020060473 -0.0018837436 0.0044879303 -0.0037334475 0.0015731665 0.00097601826 -0.0041157138 0.004191583

player_encoder.4.weight f4 [128, 128]
00000000: 8b12 183b 1177 b0bd 8ff0 4b3d adfd 1f3d
00000010: 3485 6e3d b00b 44bd e930 553d 63d5 8cbd
00000020: 6a50 423d a25d 20bd e601 633d e0d0 83bd
00000030: 7ab8 e33b ea33 7bbd f37a 8a3d 10b2 3d3d
00000040: 3aba d93c bde9 943c 8523 b43b 3dac a2bb
00000050: 0ad8 1a3d 92cd 513d 39b1 b4bd 7e3c 443d
00000060: d4c0 9c3d fb60 e6bc 8d0b 183b 027e 9a3c
00000070: 2702 80bd 7250 a4bc 1685 b33d f85c 9d3d
00000080: 165c 703d 0aad 263d aed8 983d e6b8 adbd
00000090: 3cc8 c8bc b42b 5cbd 0fe7 a53d 33cf adbd
000000a0: 12c6 483c 8c67 9b3d 116e 32bd 4756 16bd
000000b0: 039b 2bbd 3d5e 1ebd 75c5 783d d364 66bd
000000c0: 6701 953d a379 abbd f5ea 0d3d cde1 48bc
000000d0: 03fc 78bd 24a5 aabd aeaf 94bd 2079 5d3d
000000e0: 9db9 973d bbfa b5bd 8f0d 93bd 56a1 143d
000000f0: f583 1f3c 02a6 883c 0c6d d93c c80d 6fbc
00000100: 06be a3bd f963 8ebb 045e 95bc 3d00 8dbd
00000110: deb8 ab3d 16ed cc3c da27 ae3b 76fc 003c
00000120: 5441 253b e54e 56bb d4a7 3d3d 1c3d 1bbc
00000130: cc40 353c 9834 f7bc 9cc9 dbbc 2477 b33a
00000140: ded0 72bd 5c42 c23b 2bca bb3c 16b3 903d
00000150: 7015 5bbd bcf5 b5bd 1f54 9ebd e821 b3bd
00000160: 42e9 053b 2bea dabc 90ca 3f3d 9648 aebc
00000170: 8aad b7bd 066b 463c 2c96 a13d bbd3 83bd
00000180: 1e01 11bd d44c 94bd 9d4c 6fbd 37c6 1abd
00000190: 7817 eebb 30a2 84bd d30c 393d 4d40 713d
000001a0: f8a4 a9bd 6a20 0d3d 89f0 b7bd abed 6d3d
000001b0: 32f8 8cbc 3967 a93d 6361 5bbd 189a a6bd
000001c0: 80e2 113c 5930 88bd 24f5 943d fdd2 6d3d
000001d0: ac28 babb ac44 98bc 9534 4cbc f23b 0f3d
000001e0: 300f 97bd 2c4d 0e3d 4e54 6cbd ce52 a93c
000001f0: a3ab fabb 1c09 c8bc 1abe 3d3d fa63 823d
00000200: 51bb 7a3d deb8 20bd c8f3 6bbd 4fca 9dbd
00000210: 1954 65bd e2e3 233d 229f 97bd d218 903d
00000220: e6f7 a23d e206 823d ea41 4dbb dfef 34bd
00000230: c6f3 8dbc 24f7 44bd 4a2d a93d 3a54 953d
00000240: 0f9e 9a3d 24a7 98bd 4e2e 533d 6ef0 2cbd
00000250: 62f7 68bb b7c4 fd3c ca3a 1bbc d6cb 96bd
00000260: fb17 3cbd 936f 4d3d f7e6 113d 09e1 cebc
00000270: 22c3 78bc aa22 de3c d351 453d 3cff fdbc
00000280: 422b a9bd 06df 90bc 4bad 7abd b4ad aabc
00000290: 2b48 813a 3897 f73c d834 77bd ef5c 9d3d
000002a0: 0574 8ebd aca9 f43c a7d4 69bd dcc2 5bbd
000002b0: 2a88 a4bd 55a9 8d3d 4aa1 8bbd 3cab afbc
000002c0: 400a 7fbd c1cd a23d 7d59 853d 4d8d 0abc
000002d0: 0c07 9d3c 15b8 893d 3c34 7f3d 3d70 8bbc
000002e0: 1290 e83c b9a5 6d3d 1730 debc 16c7 90bd
000002f0: 4d61 833d d2f1 98bd 5405 a33d a7ec 923d
00000300: 203b ffbb 83af 9d3d 901b 80bd 749c 9dbd
00000310: 55b4 91bd 2969 81b9 f733 86bd 9656 1d3d
00000320: e453 4c3c 3e42 4c3c 9afe aa3c e77f 9a3c
00000330: 780d f5bc a939 84bd 07e7 363d 120c 5e3d
00000340: a394 333d 225a a43d 43b2 fe3b c6f7 a93d
00000350: 5c91 273d 9dee 8f3d 7777 95bc 91a1 133c
00000360: 01af 20bd 81b1 483d 2f8a b83b 417e 15bd
00000370: 7f8f a03a 2f85 b13d efc1 b33c ce5f a3bd
00000380: 23f0 a53d 4aa7 69bd 9638 6cbd 2be8 903d
00000390: fe5f fa3b 4d6c 11bd 65df 373d 9f41 85bd
000003a0: 2f6e 3cbd eb63 cebb ba0d 813d ce26 893d
000003b0: 9530 59bc d7ed a7bd e9fe 933d 2451 dbbc
000003c0: 9526 d9bc 97b6 3ebd 5de9 7b3d 35ac 123c
000003d0: c981 9e3d 8d43 3b3d 3ff7 833d e311 a1bd
000003e0: d6d7 a43d b586 5e3d 2f1d 003c 99c9 613d
000003f0: 98ea 643d 13ca abbd f3a6 82bd d50f 8a3d
0.0023204412 -0.0861646 0.04978996 0.039060283 0.0582325 -0.04786271 0.052048597 -0.06876638
0.04743997 -0.039151795 0.055421732 -0.06436324 0.0069494816 -0.061328806 0.06761732 0.04631239
0.026578058 0.018177861 0.0054973983 -0.00496438 0.037803687 0.051221438 -0.08822865 0.047909252
0.076539665 -0.028122416 0.0023200244 0.018858913 -0.062504105 -0.02005789 0.087656185 0.07683748
0.05868157 0.040692367 0.07463203 -0.08482532 -0.024509542 -0.053752616 0.081007116 -0.08486786
0.012254255 0.075881094 -0.043562 -0.036703374 -0.041895878 -0.03866409 0.060735185 -0.056248497
0.07275658 -0.0837281 0.0346479 -0.012260866 -0.060787212 -0.08332279 -0.07260071 0.054070592
0.0740845 -0.08885714 -0.071803205 0.036286674 0.009736051 0.016680721 0.026541255 -0.014590688
-0.079952285 -0.0043454138 -0.018233307 -0.06884811 0.0838487 0.025015395 0.0053148093 0.007872691
0.002521594 -0.0032700833 0.04630263 -0.009475019 0.011062812 -0.030176446 -0.026829533 0.0013692123
-0.059281223 0.005928321 0.02292355 0.07065408 -0.05348724 -0.08884761 -0.077308886 -0.087467015
0.0020433222 -0.026722988 0.046824038 -0.021274846 -0.08968647 0.012110477 0.07889971 -0.06436869
-0.035401456 -0.07241216 -0.058422673 -0.03778669 -0.0072659813 -0.06476247 0.045178246 0.058899213
-0.082834184 0.03445474 -0.08981425 0.058087986 -0.017208192 0.08271641 -0.053559672 -0.0813486
0.008904099 -0.066498466 0.07273319 0.058062542 -0.005681118 -0.018587433 -0.012463708 0.034969278
-0.07375944 0.034741566 -0.057697587 0.020669367 -0.007649855 -0.024418406 0.046323873 0.06366725
0.061213795 -0.039238803 -0.057605535 -0.07704603 -0.055988405 0.040012248 -0.07403399 0.07035984
0.07957439 0.06348969 -0.0031319805 -0.04417407 -0.017328154 -0.048087254 0.08260591 0.072914556
0.075496785 -0.074537545 0.05155783 -0.04222148 -0.0035547842 0.03097759 -0.009474466 -0.07363097
-0.045921307 0.050155234 0.035620656 -0.02525379 -0.015183242 0.027116138 0.048173737 -0.031005494
-0.08260204 -0.01768447 -0.06120042 -0.020834781 0.0009863427 0.030223474 -0.06035313 0.07683741
-0.06955723 0.029866062 -0.057087567 -0.05365263 -0.08033784 0.06917063 -0.06817873 -0.021443956
-0.062265635 0.07949401 0.06511209 -0.00845654 0.0191684 0.06724564 0.062305674 -0.017021293
0.02838901 0.058019374 -0.02712254 -0.07069223 0.06415043 -0.074679986 0.07960001 0.07174044
-0.0077890307 0.07699492 -0.06255257 -0.07695857 -0.07114474 -0.00024683148 -0.0655288 0.038412653
0.012471173 0.012466965 0.020873357 0.018859817 -0.029913649 -0.0645631 0.04465392 0.05421073
0.043842923 0.08025004 0.0077727153 0.08299212 0.04091011 0.07027934 -0.018245442 0.009010688
-0.039229397 0.048997406 0.005631707 -0.03649736 0.0012249796 0.08667981 0.02194306 -0.07977258
0.08102443 -0.057044305 -0.057671152 0.070755325 0.0076408377 -0.035503674 0.04489078 -0.06506657
-0.046003517 -0.0062985322 0.06301446 0.066968545 -0.013256212 -0.08199661 0.07226355 -0.02677209
-0.026507655 -0.04656085 0.06150185 0.00895219 0.07739598 0.04571872 0.06443643 -0.0786474
0.0804898 0.054327685 0.007819458 0.0551239 0.05588779 -0.08388152 -0.06379499 0.06741301

player_encoder.4.bias f4 [128]
00000000: 04bc cabc 0758 a43d 55da 9f3d 133b 08bd
00000010: 16eb 933d 074c 9ebd 2658 b53d 8a2f 203d
00000020: d818 94bd 510d 81bd c769 293d 94e9 6c3b
00000030: 1388 1f3d 0a47 fa3c 46ed 79bd b1e1 1abb
00000040: e063 2d3d 2282 37bd 8b6f 9cbd f5d1 6b3d
00000050: a3a1 12bd 7c2a b83d 2ff8 a93d 8973 c6bc
00000060: 9bbf 7ebd 702c 20bd 7d11 a9bd 76c0 a33d
00000070: c872 f33c 8005 d1bb 9faf e0bc 1272 22bd
00000080: 01e7 9b3c cd67 2e3d 8893 bbbb a716 58bd
00000090: 9a81 ad3d 84d0 19bd b380 20bd b944 ba3d
000000a0: f5c1 793c 947c 98bc eeae 85bd 92c1 cc3c
000000b0: 8254 3abd 0d59 143d 2333 53bd 7e17 da3c
000000c0: 65b1 023d 9d83 93bb 1067 3d3d 4f6e 7e3c
000000d0: 8f06 d5bc f2d0 67bd 6676 88bd 692c 853d
000000e0: 0141 62bd a36b 49bd 9780 8d3d ec8b 973b
000000f0: 81ca 663d eeac 8dbd d6d0 2ebd 4e37 3abd
00000100: bea0 583c 1f10 863d cda5 07bd 33fc 82bd
00000110: f876 a1bd dc0e 5a3d 53bc b63d fafd 29bd
00000120: 3d2e 38bd 8b5d 30bc 82f0 063d 6e3c 043d
00000130: 7944 a63d 39c8 0d3d bcfa 43bc 28d7 48bd
00000140: cb59 a4bd 0dd3 9f3d 7145 903d 5c05 11bd
00000150: a931 6c3d d033 373d a5b2 14bd b089 a4bd
00000160: d314 ff3c 14a2 7f3d cecd a43d bfad abbd
00000170: 6c4b b4bd e44a 5e3d 7f86 643c 7931 923d
00000180: c64a 983d 01a7 813b 7f71 b03d a5e6 023d
00000190: f129 b43c 82ea 303d cb93 92bd c1d7 373d
000001a0: 4e7f 863d 0ee6 bf3b 8bd0 b63c c193 43bd
000001b0: d71a fb3b 238e 5abc a20b 69bd c8b7 6fbd
000001c0: 7eaf ba3c 912b c23b 7ce3 fc3c e312 b1bd
000001d0: 0c15 a73d 2c55 ac3d 688d a43d 8d6e b1bd
000001e0: ca56 2abd 21ee b53d 5f8e 783d d1e4 963c
000001f0: 149e d43c 9e4b ac3d d5d5 c63c 2e62 a33c
-0.024747856 0.080246024 0.078053154 -0.033259463 0.072225735 -0.07729345 0.088547036 0.039107837
-0.07231301 -0.06301368 0.041360643 0.0036149966 0.03894813 0.030551452 -0.061017297 -0.0023633058
0.042331576 -0.04480184 -0.07638463 0.057573278 -0.03579868 0.08992478 0.082992904 -0.024225013
-0.062194448 -0.03910488 -0.08255289 0.079956934 0.029717818 -0.0063788295 -0.027427493 -0.039659567
0.01903105 0.04257946 -0.005724374 -0.052755978 0.08471985 -0.03755237 -0.039185237 0.09095139
0.015243997 -0.018614091 -0.06527506 0.024994645 -0.04549075 0.036217738 -0.05156244 0.02662253
0.031907458 -0.0045017735 0.046240866 0.015529229 -0.026004104 -0.05659575 -0.06663208 0.06502611
-0.055237774 -0.049174916 0.06909292 0.0046248343 0.056345467 -0.06917749 -0.04267963 -0.0454629
0.013221918 0.065460436 -0.033117104 -0.063957594 -0.078840196 0.053236827 0.08922639 -0.041501977
-0.04496597 -0.01076449 0.03294421 0.032284193 0.08118529 0.034614775 -0.011961635 -0.049033314
-0.08024939 0.078039266 0.07044495 -0.0354055 0.057664547 0.044727147 -0.03630318 -0.08034074
0.03113786 0.06241043 0.08047067 -0.08382749 -0.08803448 0.05427064 0.013948082 0.071383424
0.07436137 0.003956676 0.08615398 0.03195824 0.021992655 0.043192394 -0.071570955 0.044883493
0.0656725 0.005856282 0.022316238 -0.04774833 0.0076631117 -0.013339552 -0.05689586 -0.058524877
0.02278876 0.0059256037 0.030870192 -0.086461805 0.08158311 0.08414683 0.080347836 -0.08663664
-0.041586675 0.0888331 0.06068265 0.018419655 0.025954284 0.0841286 0.024271885 0.019944277

attn.0.weight f4 [64, 128]
00000000: 65db f4bb a45e 7abc a005 a5bd 0e16 afbc
00000010: aaf2 f8bc 7d8a 913d 4ebd 1e3d 72c7 113d
00000020: 851b aa3d 362c 8dbd 6254 00bd 0362 a7bd
00000030: 2230 8b3d 0e0c bb3c 97bd 553d d218 0b3d
00000040: a8f3 39bc 3439 7f3c 5c8f 1cbc cdf0 6f3d
00000050: 4bf5 963d aa8a 8abd a1ec f93c d691 7bbd
00000060: b91c 093b b44d 643d 2848 963d c70e be3c
00000070: 1564 8bbd 3ec4 233d a939 263c b8e5 a3bd
00000080: 8479 00bc 75df db3c 21db 82bc c567 2b3d
00000090: 6ecf 0fbc b266 99bd 4978 403d ac93 8a3c
000000a0: f690 3fbd 4763 9cbd 492c b4bd 6d77 acbd
000000b0: df16 483c 141c 373d b15f a13d ad4a a83d
000000c0: 658c ac3c f17c 8cbc 8b04 753d e814 85bd
000000d0: eb6e 9cbd 194c 85bd b117 793d 341d 59bd
000000e0: e9c7 2c3d a334 a83c 4c9f 1b3d f74f 9a3d
000000f0: cbfc 97bd 0c86 fbbc c6e2 afbb 84fc b93b
00000100: 59ae ce3c ff98 983d 9696 3e3d b1f0 6d3c
00000110: d9f5 5cbd 3a71 c73c 859f 71bd 70f6 19bd
00000120: d8aa 89bc 473c 013d b31f 3fbb 60f5 df3c
00000130: 57ea 9a3c ef1e a5bd 9b97 333d ae27 333d
00000140: 8201 8abd 7303 703b 528c 903d af26 663d
00000150: 4fd0 743d 98ed 8e3d 7a87 003d 7e99 7fbb
00000160: ac6e 803d 0ed2 923d a84b 23bd e886 393c
00000170: 9c72 8f3d 1101 8cbd f429 8abb 6c9d 183d
00000180: 3620 e3bb 9c36 36bd d911 18bb 9124 19bd
00000190: dd97 93bd 3f06 c6bc d076 053d 6ec0 aebd
000001a0: 50e1 f43c 52ee 143b 68ef a2bd 29ef 0bbd
000001b0: c64d 2d3d de92 82bd f61c cd3c bc98 82bd
000001c0: f98b f93c 7daf 183d 23a2 84bd a521 3bbd
000001d0: 8816 83bd 61cd a83c 2b3d 61bd 586f 86bd
000001e0: 4887 8abc f324 9c3d 0c7b 15bc 9f33 b7ba
000001f0: 4686 22bd 1fe2 8ebd 6045 e63a 737c 153c
00000200: ee06 0dbd 432f 1a3d 5e5a 843d bbe8 4dbd
00000210: 92ec 893d 63b4 d53c 889f 8b3d ef3e 673d
00000220: 319a 8ebd 6b56 03bd dfde 943d 1dce 93bd
00000230: ff21 0bbd f514 bc3d 1d01 a9bd 09a1 9fbd
00000240: 5525 893d e08b 213d 2095 50bd adc7 b4bd
00000250: 8c7e a5bd 278f 1bbd a2fb 793c 09f2 f4bb
00000260: 21ad 3abd 1576 5a3d 74c0 43bc 75ce 60bd
00000270: f5a7 ae3d 4b55 a83d e2ee 4fbd c3e2 073d
00000280: 3b2f b4bc 1e0b 903d 9dad 6cbd 713b 44bd
00000290: 971c 7d3c f8b9 943d a6fa b0bd e212 85bb
000002a0: 9bbc 383d fcf1 d73c df93 72bd 7245 8b3d
000002b0: ff03 a03d 2cb7 e83b 7667 8fbd d608 8abd
000002c0: 6c91 0f3d f063 02bd a30f 713d 7548 a33d
000002d0: 580b 973d 21d7 dc3c 1f58 91bd dea3 a2bd
000002e0: 8404 b43d b9fd 47bd ed51 a8bc 052a cf3c
000002f0: 3ba0 483d f295 51bd b8b9 7f3d 3bf1 933d
00000300: 4e71 903c bbe5 193d e323 2ebd bee0 0abd
00000310: ae42 173d 3813 4dbd 37cd 71bd 6585 5bbd
00000320: 3e31 48bc df2b 8bbd cd99 07bd e624 61bd
00000330: 2035 b53b 7748 8abc 7d0b 953d 45f9 823d
00000340: 8683 86bd 1781 aebd 02f7 40bd 3425 8ebd
00000350: 1305 653c 04f3 3dbd 9927 a33d 0100 adbd
00000360: 78f7 c63c 1b4c 9d3d 93c1 1f3c 545c 96ba
00000370: 3258 b43c 285a 72bd b1ed 87bd c1de 4fbd
00000380: 7fc7 d0bc 6450 313b a585 0b3d 7075 833d
00000390: 4b3f 173d fdf6 2dbc fcdb 3f3d 6940 103d
000003a0: f275 b63c edbc 863c 2d15 773d ab4e 423d
000003b0: 509a 95bb 7132 d73c 4630 0f3c 5277 393d
000003c0: bb1d 8b3d e4ba a43d 23c8 9d3c e672 a93d
000003d0: 29b6 a23d fb1c db3c 8199 6cbd 1d92 8ebc
000003e0: f79f fa3c 5a6c 9b3d 5c54 ba3d 25e7 b6bc
000003f0: e8b0 ae3d 40eb acbd 59ee 8abd f1f1 5cbd
-0.007472443 -0.015281353 -0.080577135 -0.021372821 -0.030389149 0.07106493 0.038754754 0.035590596
0.0830603 -0.06893198 -0.031330474 -0.08172991 0.0679629 0.022832897 0.05218276 0.033959217
-0.011349596 0.015577603 -0.009555664 0.058579255 0.07371005 -0.06764729 0.030508341 -0.061418377
0.002092166 0.055738166 0.073379815 0.023200406 -0.068061985 0.039982073 0.010145583 -0.080028
-0.007841472 0.026839951 -0.01597363 0.04184701 -0.008777482 -0.07490291 0.046989713 0.016916119
-0.046769105 -0.07636123 -0.08797509 -0.08421216 0.012212484 0.04470451 0.0787958 0.08217368
0.02106304 -0.01714942 0.059818786 -0.06498128 -0.076383434 -0.06508655 0.06081361 -0.053006366
0.042182837 0.020532912 0.037993714 0.07534783 -0.07421263 -0.030703567 -0.0053676097 0.005675854
0.02522962 0.07451057 0.04653033 0.014522717 -0.053945396 0.024345983 -0.05899002 -0.037588537
-0.016805097 0.031551626 -0.0029163181 0.027338684 0.01891057 -0.08062541 0.043845754 0.043739013
-0.06738569 0.003662315 0.07058014 0.056189235 0.05976897 0.06978911 0.0313792 -0.00390014
0.06271109 0.07168971 -0.039867073 0.011323668 0.07004282 -0.06836141 -0.004216427 0.037259504
-0.00693133 -0.044485673 -0.0023203997 -0.037388388 -0.072067 -0.0241729 0.03258401 -0.08532797
0.029892594 0.0022725058 -0.07955819 -0.034163628 0.0423105 -0.06375669 0.025038224 -0.06376788
0.030462252 0.037276734 -0.064762376 -0.045686383 -0.06400782 0.020605745 -0.054989975 -0.06564206
-0.01691021 0.07624235 -0.009123575 -0.0013977176 -0.039678834 -0.06976723 0.0017568283 0.009123909
-0.034430437 0.03764273 0.06462549 -0.050270777 0.06734575 0.026086992 0.068175375 0.056456503
-0.069630034 -0.032064836 0.07269072 -0.07217047 -0.033967968 0.09183685 -0.082521655 -0.07794387
0.06696574 0.039440036 -0.050923467 -0.08827148 -0.080807775 -0.037978318 0.015257748 -0.007475142
-0.045575265 0.053335268 -0.01194774 -0.054884393 0.08528129 0.08219393 -0.050764926 0.03317524
-0.021995177 0.070333704 -0.057782758 -0.04790825 0.015448711 0.07262033 -0.086415574 -0.004061089
0.045101743 0.026360504 -0.059223052 0.06800355 0.07813262 0.007101914 -0.070021555 -0.067399666
0.035050794 -0.03183359 0.058852803 0.079728045 0.073752105 0.02695805 -0.07096886 -0.079414114
0.08789924 -0.048825953 -0.020546878 0.025288591 0.048980933 -0.05116839 0.062432975 0.072237454
0.017632153 0.037572604 -0.042514693 -0.033905737 0.036928825 -0.050067157 -0.0590336 -0.05359401
-0.0122187715 -0.06795477 -0.03310566 -0.05496683 0.0055300146 -0.016880257 0.07277582 0.06395201
-0.06568055 -0.08520716 -0.047110565 -0.0694069 0.013978261 -0.046374336 0.07966537 -0.08447266
0.024287924 0.076805316 0.0097507415 -0.0011471608 0.022014711 -0.05916801 -0.06637133 -0.050749544
-0.025485752 0.0027055973 0.034063 0.06418884 0.036925595 -0.010617969 0.046840653 0.035217676
0.022273038 0.016447509 0.06032293 0.047438305 -0.0045655146 0.02626917 0.008739537 0.04527981
0.0679278 0.08043459 0.019260472 0.08273868 0.079449005 0.026747217 -0.05776358 -0.017403657
0.030593855 0.07589026 0.090981215 -0.022327015 0.08529836 -0.08443308 -0.067837425 -0.05394167

attn.0.bias f4 [64]
00000000: c16d 70bd 258d 013c 03c4 8a3d 3465 b1bc
00000010: 8fe8 93bd 0c45 b83b 9ac0 0f3c 8ccb f13c
00000020: 2773 9b3d b7f8 af3d eff5 343c 0486 86bd
00000030: 706c 833d eb83 913d c7b3 9f3d eff5 0c3c
00000040: ff10 6cbd ea5f 7d3c 53ec 993d 3b86 8cbd
00000050: 9740 b33d 22fc 4ebd e0ea 2fbd 928c 69bd
00000060: 60e6 953b 3cc2 7cbd e020 f6bc 9e08 b8bc
00000070: 39c6 4a3b 5c18 2c3d 95c8 d13c e258 f43b
00000080: 0155 c83c 34d6 05bd a4fe 743d 9af1 aebc
00000090: 0f52 89bb 6fc3 3dbd fffc 9abd 2ef8 f1bc
000000a0: 2ecb bbbd 1f90 993d 30d2 39bd 6fe7 7f3b
000000b0: d81e 5fbc 7598 46bd 7202 3f3d 8fac 33bc
000000c0: 3f1d 703d 33d2 42bd 4ef7 ebba 4e64 8d3d
000000d0: 107f 91bd 03fb fcbc 6f51 58bd 6223 523b
000000e0: bc48 9ebc 5679 683d 9572 a83d 8f64 7bbd
000000f0: 7072 e3bc b89b 93bd d1ec 933c a6bc 2ebd
-0.05869842 0.007907187 0.067756675 -0.021654703 -0.072220914 0.0056234654 0.008773947 0.029516004
0.07590323 0.085923605 0.011044963 -0.0656853 0.06417167 0.071052395 0.07797962 0.008603557
-0.057633396 0.015464762 0.075157784 -0.0686154 0.08752554 -0.05053342 -0.042948604 -0.057018824
0.004574582 -0.061708674 -0.030044973 -0.022465046 0.0030940904 0.04201542 0.02560834 0.0074568847
0.024454596 -0.032674983 0.059813157 -0.021355439 -0.0041906903 -0.046328958 -0.075677864 -0.029537287
-0.09169613 0.07498192 -0.045366466 0.0039047857 -0.013618194 -0.048485238 0.04663319 -0.010966434
0.05862164 -0.047563743 -0.001800278 0.06903897 -0.071043134 -0.03088141 -0.052812036 0.0032064547
-0.019321792 0.05675634 0.0822498 -0.061375197 -0.027764529 -0.07207435 0.018057259 -0.042660378

attn.2.weight f4 [1, 64]
00000000: db4f 923d 308a d83d df88 df3d e12d 1f3d
00000010: b8bb 8ebd 5c0f ce3c 0724 f73d dec3 7dbd
00000020: ece2 f93c 9017 29bd 56bd f2bd 2178 09bd
00000030: 0f03 a2bd 110f a23d 1fcb 30bb 6abd 7dbd
00000040: b42e dd3c a3b5 40bd 8e5f e0bd c575 b3bd
00000050: 6619 d4bc 155e bfbd b82d 6cbd 8dc8 043d
00000060: faf8 a33d a59e 8ebd 42ca 73ba 97a4 cdbd
00000070: be86 9f3c 2398 d4bd 779b 8ebd b984 1b3d
00000080: 5329 93bd 9f93 a9bc 6e24 fcbd 89a0 afbc
00000090: 18e4 963d 823b 8a3d 6c57 693d 7197 ea3d
000000a0: 1d14 00be 9117 c2bc 7b18 50bd 5d78 aa3c
000000b0: d6b8 d83d 33b2 943c 40f6 e13d bc75 ce3d
000000c0: 2026 fbbd f8ae 273d fd70 b23c a0f1 dcbd
000000d0: 68ce e0bd 7661 a83d 1f20 163d 0e7a bf3c
000000e0: b5d1 aa3d 0aa7 d1bc 8bc9 593c 821a cdbd
000000f0: 3eb5 803d 905c 41bd 4ac4 693d 5568 e4bd
0.071441375 0.10573232 0.10914778 0.038862113 -0.06969398 0.025153808 0.120674185 -0.06195437
0.030503713 -0.041282237 -0.11852519 -0.03356183 -0.0791074 0.0791303 -0.0026976538 -0.061948217
0.026999809 -0.047048222 -0.109557256 -0.08762697 -0.025891017 -0.093441166 -0.05766079 0.032417823
0.08006473 -0.06963853 -0.0009299853 -0.10041159 0.01947343 -0.1038058 -0.06963246 0.03796837
-0.07185616 -0.020700274 -0.12311636 -0.021438854 0.07367724 0.067496315 0.056968138 0.114546664
-0.12507673 -0.023692878 -0.050804596 0.020809347 0.1058213 0.018151378 0.110332966 0.1008105
-0.12263131 0.040938348 0.021782393 -0.10788274 -0.10976869 0.08221714 0.036651727 0.02337363
0.0834078 -0.025592346 0.0132926805 -0.100148216 0.06284569 -0.047207415 0.05707196 -0.11152712

head.0.weight f4 [256, 400]
00000000: 7f6c 163c c97a 343d d988 2e3d 99a6 67bb
00000010: 8011 173d ab7e e5bc e9a1 24bc 50c8 203c
00000020: 94ed cabc 3036 4f3c ddee bf3b 8405 1e3d
00000030: a553 923c 3ad2 d8bc 96c1 4cbc 65c4 4abb
00000040: 1d6c 073d a319 eabc f5b5 cabb eec4 cd3b
00000050: b741 8d3c 1328 1c3d 1593 1b3d 4258 a5bc
00000060: 9fe7 17bd 0058 443b b2bc 093d e5c1 8f3c
00000070: 7b44 413d da11 423c 35c1 9a3c 9bf0 c1bc
00000080: 2cbf a8bb cf6d 08bd 754a fcbc 0aaa 383c
00000090: 8093 0cbc b6e9 0c3c 117d 4f3c ac1f 2b3c
000000a0: c6de 1a3c 332b 49bd 823d 3fbd 7cfc 0dbd
000000b0: b033 1cbd 67b7 b3bb a111 a4bb 7f9e 1a3b
000000c0: d736 bb3c 1bb9 913c 057f e2bc 5633 34bd
000000d0: 9441 f0bc c9e5 03bc ac61 093c 0351 453d
000000e0: 7496 183d 4756 22bd b450 16bb a44e 003d
000000f0: 890f c53c 561b c73b dee1 093b efaa 11bd
00000100: 84c3 a9bc 5dcf 063d a740 da3c c9eb e23c
00000110: 9639 423d 4f20 2c3d c137 d1bc a000 d83c
00000120: e1d5 073d a69f a5bc c2a2 e23c 9df2 c9b9
00000130: 67cf a53c c68c 19bd adfe 03bd 6419 8abc
00000140: 7bc4 37bd 5379 9b3b 91d5 d1bc df60 063c
00000150: fd53 13bc 3b90 553c 3453 27bd b22a 533d
00000160: 9e24 b5bc 2500 b43a 469b fabc dcc0 363c
00000170: 7951 ccbc ea9e e83c a72a 433d f83b 18bd
00000180: 089a 06bd 4bf9 e83b d009 4e3d 86b1 1f3d
00000190: 805f e3bc 902e b63c 8fb1 0c3c 928f 483d
000001a0: 1286 ed3b 082e 253c 1ccc 963b 0e69 5ebc
000001b0: fd09 0c3d 3559 d63c a2a7 ee3a 67da 0cbd
000001c0: 915f a73c 07fe 1d3c 5cb5 df3b 2cf6 2e3d
000001d0: 89ce b5ba 862a 2bbd 9609 dd3c 7ecd b1bb
000001e0: 12ae 1ebd e04c dd3c ce05 11bd 69c2 083d
000001f0: 02c4 f23c 9966 13bd b197 48bd 99d9 55bc
00000200: 43b0 243d fa76 48bd 318c 17bc 58c3 323d
00000210: 11de 073d 7cfa 223d 3c9a 413d c716 3f3d
00000220: 9d98 df3c d429 38bd 62ef c13b eee9 36bd
00000230: cdc7 2f3d 143e 0b3d 6678 9dbb bc4c 50bd
00000240: 4b93 cbbc 7c9b 173d 72e5 df3c 0868 e93c
00000250: df9e c4bb 4f58 543c 8cb4 e63c bccb 12bc
00000260: d310 ccbc 8342 30bc 02c5 e1bc 9d00 133c
00000270: bc80 41bd 4310 0fbc fca1 273c 3d1c c53c
00000280: 886e afbc 3d23 bc3c 58eb 08bd 5667 c13c
00000290: 8d47 3d3d dde4 2bbc bbdc b5bc b301 cebc
000002a0: 3fdd d63c 2881 30bc 339f 99bb dee8 36bd
000002b0: 6812 233c ea7e f53c 3aff d93c 2050 a83c
000002c0: ff7c c83c 5495 b53b 8f0f 15bb 3795 433d
000002d0: 8b07 0dbd 78a4 e73c c8eb 993c 287c 18bd
000002e0: a395 283d 65c6 063d 322a 8b3c dfce 3b3d
000002f0: 1f12 173d 19a5 adbc f834 25bd 17d5 ddba
00000300: 23cb 0b3d 73f8 32bb ae36 313d 2f9e 35bd
00000310: 085a 453d 8e14 a43c ed8d 243c 52b0 c5bb
00000320: 9b2d 293d 26ea cebc 0368 dc3c 5dd3 b5bb
00000330: 7197 6c3b 60c0 f3bc 7a77 30bc 9d83 e6bb
00000340: fa5e 23ba cd02 ed3c c66b 303c 53de c3bc
00000350: b443 e2bc 8f5a 8abc 1355 513d a162 cd3c
00000360: 62e4 423c 6f30 00bd 88fa 45bc fb5d f9ba
00000370: 3f92 fe3b 8902 16bd a2c2 74bc 7d26 57bc
00000380: 043a 89bb 38b7 21bc 048f b63c 620c ebbc
00000390: 1cb4 1f3d b256 2fbd f40e 15bd 9847 47bd
000003a0: 7940 f43a b1b2 72bc 51e6 efbc 334a ccba
000003b0: 608c 453d 5718 dabb af20 133d 6a01 c43c
000003c0: beb3 06bc 5711 283d 8aa1 193d a4c1 c9bc
000003d0: 6893 6fbc 03c9 123d 2981 183d 5665 45bd
000003e0: 5ab1 d7bb 0784 993c f225 4cbd 204c 16bd
000003f0: af7b b4bb 97f7 113d 8fae fdbc 8a97 43bd
0.009181141 0.04406241 0.042610977 -0.0035347103 0.036881924 -0.028014502 -0.010048368 0.009813383
-0.02477149 0.012647197 0.005857332 0.03857948 0.01786215 -0.026467431 -0.012497326 -0.0030939814
0.03306209 -0.028576678 -0.0061862417 0.0062795794 0.01724325 0.038124155 0.037982065 -0.020183686
-0.037086125 0.0029959679 0.03362722 0.01754851 0.04718445 0.011845076 0.018890956 -0.0236743
-0.0051497426 -0.033307847 -0.030797223 0.011271009 -0.008580089 0.008600643 0.0126640955 0.010444563
0.009452527 -0.049113464 -0.046689518 -0.034664616 -0.03813523 -0.0054845097 -0.0050069843 0.0023593006
0.022853298 0.01778846 -0.027648458 -0.04399427 -0.029328145 -0.0080503905 0.008385103 0.048172962
0.03725286 -0.03963306 -0.0022936286 0.031324998 0.02405526 0.0060762567 0.0021039168 -0.035563406
-0.020723112 0.0329126 0.026642157 0.027700322 0.0474182 0.042023 -0.02553928 0.026367486
0.033162955 -0.020217728 0.0276655 -0.00038518469 0.020240499 -0.037487768 -0.0322253 -0.01685781
-0.044865113 0.0047446876 -0.025614532 0.008201807 -0.008992192 0.0130348755 -0.040850833 0.05155439
-0.022112187 0.0013732953 -0.030591618 0.01115438 -0.024941193 0.028396089 0.0476481 -0.037166566
-0.03286174 0.007109796 0.050302327 0.03898766 -0.027755499 0.022239 0.008587255 0.048965044
0.0072486484 0.0100817755 0.0046019685 -0.013574852 0.034189213 0.026165584 0.0018207917 -0.034387972
0.020431312 0.009643084 0.0068270396 0.042715237 -0.0013870756 -0.0417886 0.02698211 -0.005426108
-0.038740225 0.027014196 -0.035405926 0.03338853 0.02963448 -0.035986517 -0.04897279 -0.013052368
0.04020716 -0.04894159 -0.009249733 0.043643326 0.033170763 0.03978966 0.04726623 0.04665258
0.027294451 -0.044961765 0.0059184292 -0.044656686 0.042915154 0.03399475 -0.0048056124 -0.05085443
-0.024850508 0.037013516 0.027331088 0.028491989 -0.006000384 0.012960508 0.028162263 -0.008959707
-0.024910366 -0.010758045 -0.027559761 0.008972314 -0.04724191 -0.008731904 0.010231491 0.024061317
-0.02141501 0.022966022 -0.033427566 0.023608845 0.046210814 -0.010491577 -0.022199979 -0.025147295
0.026228545 -0.010772981 -0.0046881675 -0.044655673 0.009953119 0.029967744 0.02661096 0.02054602
0.024473665 0.005541483 -0.002274487 0.047749724 -0.03443102 0.028276667 0.018789187 -0.03722778
0.04115833 0.032904048 0.016987894 0.045851585 0.036882516 -0.021196889 -0.040333718 -0.0016924468
0.034129273 -0.0027308732 0.043265037 -0.04434031 0.048181564 0.020029332 0.010043603 -0.006032982
0.04130326 -0.025258135 0.026905065 -0.005548878 0.0036101008 -0.029754817 -0.010770673 -0.0070347325
-0.0006232109 0.028932 0.010767883 -0.023909723 -0.027620174 -0.016888885 0.051106524 0.025071444
0.011895271 -0.03129619 -0.012083657 -0.0019025201 0.0077688987 -0.03662351 -0.014938982 -0.013131735
-0.004187824 -0.009870343 0.022284992 -0.028692428 0.038990125 -0.04280729 -0.036391214 -0.04865226
0.0018634937 -0.014813111 -0.029284628 -0.0015586078 0.048229575 -0.0066557336 0.03591984 0.023926456
-0.008221565 0.04103216 0.03750757 -0.024628468 -0.014622547 0.03583623 0.03723255 -0.048192345
-0.0065824213 0.018739713 -0.049840875 -0.036693692 -0.0055079083 0.03563651 -0.030967025 -0.04775194
